models/best_model.pth (torch, 405986 bytes, 12 tensors)

conv1.weight f4 [32, 1, 3, 3]
0.20317733 0.21392728 -0.1645176 -0.348267 -0.7090355 -0.4159752 -0.3258654 0.29897347
0.41211584 -0.10825238 -0.22194907 -0.38527253 -0.27166593 0.03240771 -0.21585838 -0.26194727
-0.36100683 0.29690412 0.29050532 0.4162794 -0.18861745 -0.60230076 -0.3299834 -0.2968234
-0.22631969 0.16514646 0.056867637 0.075504884 0.061398882 0.5025841 -0.30082312 -0.13203473
-0.33980593 -0.37704617 -0.24125028 -0.41833544 -0.32262582 0.19484068 -0.121230006 0.014965484
-0.33236086 0.19234906 0.3101146 -0.36821684 -0.013213083 0.20772023 0.27413353 -0.32656708
0.055222224 -0.43948215 -0.37519944 -0.07145135 -0.20886284 0.09997882 -0.23081987 -0.7731729
-0.25919446 0.45494014 0.19111027 0.5053165 0.032387234 -0.09124524 -0.43044356 0.070356585
0.39817125 -0.19472806 0.2544775 -0.2483604 -0.7827569 -0.40643656 -0.4964705 0.11852387
0.23737529 -0.43719596 0.30781657 0.16316928 -0.43128192 -0.00092034246 -0.50318426 0.112388015
-0.084727295 -0.0626491 -0.110525675 0.35337272 -0.24180315 -0.17555866 0.3187377 -0.7399647
0.18010084 0.3713164 0.73459303 -0.30538076 -0.5078324 -0.41443285 -0.2984137 -0.09506356
-0.4089479 -0.1792028 -0.05943636 -0.27579546 -0.8333309 0.47567064 -0.24971224 -0.20996486
0.54628056 -0.1973832 -0.8454938 0.10494519 0.0072729457 0.19034882 0.29815435 -0.25359565
0.37866673 -0.031358972 -0.7086011 -0.6192308 -0.88336515 -0.16491543 -0.21310157 -0.3209097
-0.12508944 -0.113528326 0.079514496 -0.2719879 -0.21049456 -0.33006623 -0.083867945 -0.022267848
-0.42738143 0.32069126 0.6925002 0.29431865 -0.496418 -0.2562173 0.12832715 0.015367084
0.30026698 -0.2474206 0.007917009 0.47090033 -0.58689785 -0.54004717 0.5069885 -0.057065964
0.16859837 -0.7505669 -0.13905333 -0.3127573 -0.2672364 0.3299416 0.108140685 0.24674478
-0.035550617 -0.5348621 -0.16663219 0.5598645 -0.03346049 -0.4708527 -0.7283327 0.044863377
0.80144817 -0.15935896 0.5722736 0.2077865 -0.3242625 -0.2630093 -0.6676328 0.0067669186
0.33386654 0.035134748 0.4170147 0.031308375 -0.037631176 0.40981254 -0.40994084 -0.03561222
0.067739435 -0.02369294 -0.32550234 -0.40382338 0.15466319 -0.0112907365 -0.14302371 -0.040785354
0.3588897 0.24997684 -0.4460709 -0.17184804 0.05480658 0.30533114 -0.44764912 -0.09339742
0.18633279 0.06057958 -0.11219924 0.01852369 -0.15519036 -0.3305789 0.102622 0.5094291
0.108505026 0.4157653 -0.1423735 0.047596723 0.20979871 -0.37152052 -0.51837087 -0.11187059
-0.6700322 0.10800302 -0.94629264 0.42169502 0.4564099 0.09654048 0.6104327 -0.3889583
0.1111005 0.18506934 -0.84650123 0.36362314 0.010193186 0.002177087 0.24196479 0.08357751
0.30357346 -0.29810005 -0.50770646 0.40988636 0.07503716 -0.5919532 -0.23377103 0.5730661
0.20288332 -0.5637743 0.1666051 0.23962566 -0.46502954 0.002256145 -0.14335588 -0.31679186
-0.5309813 -0.27163157 -0.0863111 -0.23825356 -0.4410135 -0.0848066 0.02999614 0.041492604
-0.5089384 -0.052175004 0.47570696 -0.48967272 0.14989436 -0.21809743 -0.39327186 0.65043944
00000000: b80d 503e c10f 5b3e 4d77 28be 0d50 b2be
00000010: 5a83 35bf b4fa d4be d4d7 a6be 0d13 993e
00000020: d900 d33e 6cb3 ddbd 9e46 63be 7142 c5be
00000030: cc17 8bbe f2bd 043d fb09 5dbe f41d 86be
00000040: e3d5 b8be d103 983e 1dbd 943e 9322 d53e
00000050: ef24 41be 6230 1abf 96f3 a8be 3df9 97be
00000060: 59c0 67be 271c 293e 0aee 683d 4ea2 9a3d
00000070: 657d 7b3d 5aa9 003f 7d05 9abe 1d34 07be
00000080: 0bfb adbe 320c c1be 500a 77be 1030 d6be
00000090: 362f a5be 5184 473e 7047 f8bd ca31 753c
000000a0: 342b aabe 27f7 443e 57c7 9e3e eb86 bcbe
000000b0: b07b 58bc 9db4 543e 3b5b 8c3e cd33 a7be
000000c0: b330 623d ce03 e1be 241a c0be 1655 92bd
000000d0: 24e0 55be b2c1 cc3d 0b5c 6cbe a9ee 45bf
000000e0: 23b5 84be eaed e83e 69b2 433e 6c5c 013f
000000f0: 7aa8 043d c9de babd 1963 dcbe 1d17 903d
00000100: 1add cb3e cb66 47be e04a 823e 3052 7ebe
00000110: c262 48bf 7418 d0be 6231 febe a5bc f23d
00000120: 8212 733e 26d8 dfbe 229a 9d3e d915 273e
00000130: fcd0 dcbe 2343 71ba afd0 00bf b02b e63d
00000140: 8185 adbd 2c4e 80bd 495b e2bd 45ed b43e
00000150: 3f9b 77be a6c5 33be 9631 a33e 546e 3dbf
00000160: 5b6c 383e 2f1d be3e 4a0e 3c3f de5a 9cbe
00000170: 4e01 02bf 8b30 d4be aec9 98be afb0 c2bd
00000180: 9f61 d1be f080 37be 8a73 73bd 1035 8dbe
00000190: 2d55 55bf 1a8b f33e 91b4 7fbe 0701 57be
000001a0: 0bd9 0b3f d21e 4abe 4872 58bf 81ed d63d
000001b0: e451 ee3b cdea 423e b0a7 983e 4ad7 81be
000001c0: 9be0 c13e 4472 00bd e266 35bf e985 1ebf
000001d0: 3824 62bf 97df 28be 4c37 5abe 474e a4be
000001e0: 7217 00be 8a81 e8bd 7fd8 a23d ff41 8bbe
000001f0: e38b 57be 71fe a8be f5c2 abbd 106b b6bc
00000200: bdd1 dabe a531 a43e b147 313f efb0 963e
00000210: 802a febe ea2e 83be 3168 033e 39c6 7b3c
00000220: 98bc 993e d35b 7dbe 58b6 013c d919 f13e
00000230: f03e 16bf 8840 0abf 00ca 013f 00be 69bd
00000240: 0da5 2c3e 2725 40bf ff63 0ebe ba21 a0be
00000250: 36d3 88be 1bee a83e dd78 dd3d aaaa 7c3e
00000260: 869d 11bd b9ec 08bf a1a1 2abe 4853 0f3f
00000270: de0d 09bd 9b13 f1be 0374 3abf a9c2 373d
00000280: b52b 4d3f ff2e 23be 8680 123f fcc5 543e
00000290: bc05 a6be 28a9 86be fce9 2abf 07bd dd3b
000002a0: 8ef0 aa3e 74e9 0f3d f382 d53e 363d 003d
000002b0: 2623 1abd f3d2 d13e c4e3 d1be 1fde 11bd
000002c0: f9ba 8a3d b217 c2bc 3ea8 a6be f0c1 cebe
000002d0: 0760 1e3e c8fc 38bc cf74 12be 8b0e 27bd
000002e0: 64c0 b73e eef9 7f3e 6863 e4be eff8 2fbe
000002f0: dd7c 603d 5d54 9c3e 4432 e5be 2647 bfbd
00000300: 06ce 3e3e 4b22 783d b7c8 e5bd febe 973c
00000310: 39ea 1ebe a341 a9be 7c2b d23d f269 023f
00000320: e237 de3d 30df d43e 5cca 11be c8f4 423d
00000330: 79d5 563e f037 bebe f4b3 04bf 681c e5bd
00000340: 3b87 2bbf b030 dd3d 3c40 72bf 69e8 d73e
00000350: 8fae e93e 04b7 c53d 5145 1c3f 8b25 c7be
00000360: a988 e33d d182 3d3e 4eb4 58bf d02c ba3e
00000370: 5201 273c 75ad 0e3b 9ec5 773e b02a ab3d
00000380: fb6d 9b3e 92a0 98be 0df9 01bf a0dc d13e
00000390: 15ad 993d 3f8a 17bf ac61 6fbe 76b4 123f
000003a0: a5c0 4f3e 8353 10bf 879a 2a3e 6e60 753e
000003b0: 5a18 eebe d5db 133b e2cb 12be 8b32 a2be
000003c0: 64ee 07bf 4b13 8bbe e0c3 b0bd bef8 73be
000003d0: 85cc e1be 15af adbd 77ba f53c 26f4 293d
000003e0: c949 02bf 75b5 55bd dd8f f33e 62b6 fabe
000003f0: e87d 193e ef54 5fbe ee5a c9be 3383 263f

conv1.bias f4 [32]
-0.40895236 -0.12904847 -0.30105272 -0.46812043 -0.18430369 -0.45868048 -0.4484294 -0.56822217
-0.291705 -0.75805205 -0.5307962 -0.7501865 -0.50439143 -0.16792266 -0.64060444 -0.45621207
-0.47953486 -0.3823847 -0.98136747 -0.2934681 -0.92787254 -0.46900997 -0.76344377 -1.0753745
-1.1428297 -0.46054605 -0.1425136 -0.19189851 -0.5489623 -1.0053865 -0.44558603 -0.58975244
00000000: 3462 d1be 4825 04be 9523 9abe 7bad efbe
00000010: 1bba 3cbe 2bd8 eabe 8a98 e5be 0277 11bf
00000020: 5c5a 95be b30f 42bf 42e2 07bf 390c 40bf
00000030: cc1f 01bf ebf3 2bbe a7fe 23bf a194 e9be
00000040: 9885 f5be edc7 c3be e63a 7bbf 7341 96be
00000050: 0e89 6dbf 1322 f0be 0d71 43bf dfa5 89bf
00000060: 3e48 92bf b1cc ebbe 16ef 11be 0b81 44be
00000070: cb88 0cbf 81b0 80bf da23 e4be 04fa 16bf

conv2.weight f4 [64, 32, 3, 3]
-0.021142602 -0.1060528 -0.098183475 -0.09063056 -0.026968803 -0.17594245 0.083269745 0.13150084
0.017301979 0.005266204 -0.03987764 -0.1647542 0.05382224 -0.10607691 -0.17581186 0.059825424
0.040909506 -0.051066305 -0.13605152 -0.052666027 -0.029685356 -0.057435095 -0.04260126 -0.008393284
-0.016655229 -0.09695555 0.12302482 -0.018219283 0.035548683 -0.112756014 -0.13829699 0.10416508
-0.07390993 -0.028394377 0.024747513 0.061899066 0.0067461673 0.027250135 -0.01892542 0.03902458
0.0391871 0.005332925 0.0053108833 -0.07595902 0.09074979 -0.08623245 -0.1175696 -0.014143508
-0.13259853 -0.06999181 -0.10365161 -0.03500522 -0.019825632 -0.059223246 -0.041498713 -0.07216692
-0.09664235 -0.034538303 -0.11221197 0.040332176 0.0072430917 -0.043262206 -0.049587592 -0.27980044
-0.23422712 -0.010658329 -0.11701637 -0.15346706 -0.15807223 -0.065430276 -0.024804674 0.15295309
-0.01279872 0.06017782 -0.0035825933 -0.03657096 0.06204837 0.053804815 -0.033204738 -0.030961534
0.10776655 -0.11905269 0.0960708 -0.26559556 -0.14724135 -0.051487334 -0.0379924 -0.13423063
-0.0763741 0.20589758 -0.05514486 -0.08950144 -0.11709372 -0.020468406 -0.055535037 -0.076155715
0.001691164 0.011890269 -0.006730848 0.008618065 0.23879206 0.069374464 -0.22228242 0.0926797
0.13465984 -0.16177626 -0.04662344 0.18039317 -0.11114053 0.13349603 -0.278914 -0.14278182
0.15942703 0.21377043 0.0060404697 -0.04613219 -0.050081972 0.124877304 -0.056848668 -0.035027046
0.07672201 -0.08142312 -0.0152569255 0.035370946 0.028408486 -0.045616917 -0.15203737 0.011423985
-0.02637317 -0.0016340446 -0.14713205 0.1385494 -0.0059006917 -0.058951717 0.01208874 -0.09179696
0.022137107 0.18220517 -0.006212105 -0.09937107 0.21911132 -0.080972604 -0.15387698 0.003325077
-0.044098757 -0.18421239 -0.14357695 -0.026625175 -0.17960078 -0.047057346 0.035286374 0.07193723
-0.038517646 0.110737234 0.00091545377 -0.009545885 0.01788364 0.021348456 -0.03696345 0.0360777
0.14068414 -0.06269695 -0.04819816 -0.116685376 -0.011429864 -0.00867597 -0.10756911 0.034035854
0.001920419 0.00026764843 -0.05575519 -0.020320551 0.053220544 -0.026151678 -0.05041848 0.148994
0.020697068 -0.095798776 -0.035759676 0.031820137 -0.18599463 0.05458588 -0.016631784 -0.08131093
-0.15778975 0.16239452 -0.046279583 -0.037758663 0.013988072 -0.048322868 0.006896838 0.14009647
0.03456313 -0.02747031 0.058830705 0.032771006 -0.0014536567 -0.011135745 -0.21471602 -0.16995728
0.14033748 -0.088615194 -0.12632176 -0.091678694 -0.020843824 0.017003456 0.17755851 -0.12253562
0.019966375 0.0011910487 -0.0400846 -0.16997693 -0.22583431 -0.07710069 0.15697102 0.0150706675
-0.10148207 -0.13339952 0.0031809327 0.0106865 -0.015690519 0.14103433 -0.026387284 -0.008865875
-0.10038206 0.12066782 0.049490567 0.12493408 -0.08679995 0.011340769 0.049630873 0.027342359
0.08649529 -0.032342758 0.0728311 -0.088253886 -0.1029263 0.006849235 -0.02173966 -0.16132873
-0.04791144 -0.014535323 -0.013740133 0.0038210978 -0.06212924 -0.01603303 -0.038596295 -0.010502869
-0.009674767 -0.036684085 0.016365053 0.0053528897 -0.059910838 0.040069643 0.07235184 0.017004535
00000000: 4033 adbc 3632 d9bd 6b14 c9bd 849c b9bd
00000010: aeed dcbc 422a 34be 5489 aa3d 28a8 063e
00000020: e1bc 8d3c 1f90 ac3b bc56 23bd 53b5 28be
00000030: b674 5c3d da3e d9bd 0608 34be 810b 753d
00000040: ba90 273d e72a 51bd 1751 0bbe 55b8 57bd
00000050: b42e f3bc 1041 6bbd a97e 2ebd fc83 09bc
00000060: 8c70 88bc a290 c6bd 70f4 fb3d 9b40 95bc
00000070: 7f9b 113d a0ec e6bd ba9d 0dbe 8054 d53d
00000080: 175e 97bd 539b e8bc 4cbb ca3c e089 7d3d
00000090: f40e dd3b ad3b df3c 7b09 9bbc 3dd8 1f3d
000000a0: a782 203d d1bf ae3b eb06 ae3b 6790 9bbd
000000b0: 07db b93d a49a b0bd 55c8 f0bd 2cba 67bc
000000c0: e9c7 07be de57 8fbd 4c47 d4bd a261 0fbd
000000d0: 5d69 a2bc 1394 72bd 8efa 29bd 40cc 93bd
000000e0: 6dec c5bd 0978 0dbd 64cf e5bd 5a33 253d
000000f0: 7557 ed3b b633 31bd 5c1c 4bbd 0142 8fbe
00000100: 3cd9 6fbe 46a0 2ebc 47a6 efbd 7826 1dbe
00000110: b0dd 21be 4f00 86bd 2c33 cbbc bc9f 1c3e
00000120: b9b1 51bc 057d 763d f1c9 6abb 6ecb 15bd
00000130: 6e26 7e3d 7062 5c3d b101 08bd 0ba3 fdbc
00000140: b5b4 dc3d e6d1 f3bd c5c0 c43d 24fc 87be
00000150: 70c6 16be 62e4 52bd eb9d 1bbd c173 09be
00000160: 066a 9cbd d1d6 523e 94df 61bd 884c b7bd
00000170: d5ce efbd 5cad a7bc b578 63bd 87f7 9bbd
00000180: 0caa dd3a 67cf 423c 728e dcbb c932 0d3c
00000190: e885 743e 3314 8e3d 019e 63be dbce bd3d
000001a0: 45e4 093e ada8 25be 38f8 3ebd fdb8 383e
000001b0: a59d e3bd 2fb3 083e d1cd 8ebe 6635 12be
000001c0: d740 233e a3e6 5a3e 22ef c53b 1bf5 3cbd
000001d0: c122 4dbd acbf ff3d 26da 68bd 8578 0fbd
000001e0: 6e20 9d3d 2ac1 a6bd 2ff8 79bc 20e1 103d
000001f0: eab8 e83c ced8 3abd afaf 1bbe aa2b 3b3c
00000200: 8c0c d8bc 702d d6ba c9a9 16be e5df 0d3e
00000210: 975a c1bb 5b77 71bd da0f 463c 0b00 bcbd
00000220: e158 b53c fe93 3a3e ea8e cbbb 0f83 cbbd
00000230: b85e 603e f7d4 a5bd ed91 1dbe 89e9 593b
00000240: e6a0 34bd 2ca2 3cbe d605 13be 0a1d dabc
00000250: 44e9 37be 34bf 40bd 7288 103d d453 933d
00000260: aec4 1dbd 34ca e23d 10fb 6f3a 5866 1cbc
00000270: b680 923c f5e2 ae3c fd66 17bd 36c6 133d
00000280: 810f 103e 4267 80bd 6f6b 45bd bef8 eebd
00000290: 5344 3bbc a825 0ebc 324d dcbd 2e69 0b3d
000002a0: 92b6 fb3a 2a53 8c39 8e5f 64bd 4977 a6bc
000002b0: c9fd 593d 0b3c d6bc 9c83 4ebd e291 183e
000002c0: e68c a93c 2632 c4bd bd78 12bd d555 023d
000002d0: 6075 3ebe 7295 5f3d 613f 88bc 5886 a6bd
000002e0: a393 21be c04a 263e a98f 3dbd d4a8 1abd
000002f0: 3a2e 653c 33ee 45bd dffe e13b 7375 0f3e
00000300: 1292 0d3d 6a09 e1bc 77f8 703d e43a 063d
00000310: a088 beba b372 36bc 84de 5bbe 4809 2ebe
00000320: a1b4 0f3e e27b b5bd 7e5a 01be 0ac2 bbbd
00000330: abc0 aabc d54a 8b3c e6d1 353e f5f3 fabd
00000340: 8690 a33c f61c 9c3a c02f 24bd 6f0e 2ebe
00000350: 1c41 67be f7e6 9dbd 03bd 203e f6ea 763c
00000360: d5d5 cfbd e299 08be 3277 503b 6e16 2f3c
00000370: 6789 80bc 4e6b 103e 252a d8bc 2d42 11bc
00000380: 1c95 cdbd b120 f73d 9fb6 4a3d 70dd ff3d
00000390: 2cc4 b1bd a2ce 393c be49 4b3d 15fd df3c
000003a0: 7124 b13d d779 04bd 7928 953d 74be b4bd
000003b0: 06cb d2bd 8c6f e03b 5f17 b2bc 5c33 25be
000003c0: c93e 44bd 9025 6ebc 4b1e 61bc 626b 7a3b
000003d0: 3b7b 7ebd b357 83bc 2617 1ebd 3a14 2cbc
000003e0: ea82 1ebc 0d42 16bd 0110 863c 4b67 af3b
000003f0: 1165 75bd 1120 243d 342d 943d 184d 8b3c

conv2.bias f4 [64]
-0.07405973 -0.069783986 -0.06879306 -0.049433865 -0.097350426 -0.391288 -0.24759717 -0.40894172
-0.20454577 -0.098865405 -0.04575551 0.006509239 -0.20082979 -0.102773994 -0.018875971 -0.09978023
0.021886375 -0.0448497 -0.4368937 -0.16160317 -0.1065051 0.033705674 -0.122327715 -0.12257709
-0.28306526 -0.06173099 -0.17527801 -0.09997194 -0.06230616 -0.08422486 -0.1919293 -0.12344217
-0.06581816 -0.058320086 -0.14777763 -0.05195709 -0.24410602 -0.18896475 -0.12518908 -0.35430312
-0.17723839 -0.13050249 -0.3380268 -0.09030158 -0.26163775 -0.279888 -0.10041611 -0.113667
0.009683781 -0.13358162 -0.044466935 -0.03807241 -0.051012166 -0.030912716 -0.035562955 -0.10362877
-0.047665678 -0.09959468 -0.1759693 -0.042239018 -0.2679019 -0.016986022 -0.10576141 -0.19427043
00000000: a1ac 97bd e8ea 8ebd 60e3 8cbd 2a7b 4abd
00000010: a95f c7bd e756 c8be 1d8a 7dbe cf60 d1be
00000020: 7274 51be f279 cabd 216a 3bbd 744b d53b
00000030: 53a6 4dbe 2c7b d2bd c8a1 9abc 9459 ccbd
00000040: 0e4b b33c 52b4 37bd 88b0 dfbe 4d7b 25be
00000050: 591f dabd f60e 0a3d f486 fabd b309 fbbd
00000060: eeed 90be a2d9 7cbd 147c 33be 17be ccbd
00000070: be34 7fbd 157e acbd 1d89 44be 40cf fcbd
00000080: accb 86bd 0be1 6ebd 0553 17be f5d0 54bd
00000090: eef6 79be fa7f 41be 9131 00be 3867 b5be
000000a0: fb7d 35be 72a2 05be d911 adbe 09f0 b8bd
000000b0: 62f5 85be 7b4d 8fbe f6a6 cdbd 3eca e8bd
000000c0: b9a8 1e3c 9fc9 08be f622 36bd d1f1 1bbd
000000d0: 22f2 50bd aa3c fdbc 76aa 11bd 523b d4bd
000000e0: 163d 43bd 4cf8 cbbd 4c31 34be d202 2dbd
000000f0: 702a 89be 4526 8bbc 7099 d8bd d4ee 46be

fc1.weight f4 [10, 3136]
-0.014708136 -0.011074697 -0.0037339793 0.002197923 0.019498296 -0.016348481 -0.014053208 -0.013047652
-0.039399948 -0.0066227447 -0.00770932 0.0017877497 0.044986855 -0.027275829 0.006993758 -0.1108632
-0.13557917 -0.029401477 0.16055298 0.057384204 -0.027011912 -0.027671209 -0.0010589234 -0.02766026
0.020498611 0.252416 0.13474432 -0.013205685 0.076200485 0.13217308 0.007960462 -0.015864998
0.18770747 -3.9193183e-05 0.009826479 -0.014267411 0.08177479 0.2015443 -0.051323563 -0.053128805
-0.030307002 -0.0062728585 -0.017074602 -0.065334 0.1332262 -0.10599223 -0.09322073 -0.015802171
-0.005925264 -0.0068811416 0.0057528545 -0.027674824 0.014671652 0.066985436 -0.037483383 0.005240363
-0.018096024 -0.046211045 -0.020136539 0.019060772 0.034622274 -0.0025701001 0.0039541544 0.025760481
-0.04058517 0.035741422 0.011338515 0.015568446 -0.01470417 0.0076417895 -0.029544033 -0.024635041
-0.04665546 -0.02159435 -0.0048119603 -0.023375558 -0.0016368442 0.040559746 -0.041937508 -0.0004937401
0.043357927 -0.011940745 -0.014797615 -0.015609939 -0.015972927 -0.01779181 -0.03460506 -0.0359678
0.0014271621 -0.02177114 -0.010734568 -0.0019521448 -0.058308076 -0.057027794 -0.09025232 -0.03638358
-0.003643363 -0.0024000467 0.007845643 0.014210757 0.0015555044 0.0051570865 -0.007788038 0.017379286
-0.002800178 -0.008238783 -0.04437493 0.053909965 -0.07327815 -0.06549321 -0.0021492648 -0.020211553
0.01173423 -0.07412229 -0.17542943 -0.084359005 0.028795574 0.0043483935 -0.008765718 -0.013819812
0.025029538 -0.31053358 -0.31608278 -0.1214095 -0.0690999 0.0141549 0.0058872714 0.054077927
0.06618004 -0.08899917 -0.12193057 -0.01659067 -0.016109353 -0.006532606 0.13546626 0.24618116
0.08804319 -0.07538997 -0.065775074 -0.045046303 0.010238647 9.576829e-06 -0.008162764 -0.06356504
-0.0375025 -0.0028992067 0.0014008094 0.01506603 -0.01021048 -0.011775855 0.030752253 0.006997419
-0.0061524906 0.013765796 0.004203465 -0.011126421 -0.0033416883 -0.0424356 -0.08250375 -0.1580641
-0.028301237 0.02390293 0.00847725 -0.05068128 -0.047214814 0.019753326 -0.29115745 -0.09965666
0.004474894 -0.008663477 -0.055173937 0.06246197 0.026099674 -0.09846146 0.026885096 0.02216341
-0.0068275575 -0.085014515 0.013856231 0.18520762 0.21744077 0.14637351 0.002886029 -0.03578899
-0.11949426 0.18399085 0.10207806 0.06390097 -0.05919151 0.0035679406 0.0056716804 -0.050063666
-0.1355326 -0.12929802 -0.08203926 -0.00637269 -0.006459252 -0.016209561 -0.007944441 0.0023722588
-0.008042301 -0.0074746725 -0.0037801056 0.004183901 -0.015455654 -0.09634427 -0.0702413 0.056368846
0.09234817 -0.012795285 0.013409155 -0.034721375 -0.26077777 0.17894092 0.13563037 0.090477176
-0.0076042814 -0.010905082 0.06178238 -0.21479583 0.004732093 0.061201233 0.20982482 -0.013014074
-0.02357259 0.10617962 -0.016810475 0.1576666 -0.18066482 0.031403672 0.005947798 -0.02397408
-0.019332105 0.004846932 0.36853743 -0.1314327 -0.12454989 -0.015278705 0.014846276 -0.06440042
0.06328293 0.007945412 -0.017565262 -0.05953964 -0.0065507106 -0.0045348746 -0.056420974 -0.072767556
0.068549864 -0.039069973 -0.017932191 0.012995915 0.008038556 0.046946745 0.16343813 0.114080235
00000000: 65fa 70bc a572 35bc c7b5 74bb 070b 103b
00000010: e4ba 9f3c 40ed 85bc 6d3f 66bc d2c5 55bc
00000020: d761 21bd 9c03 d9bb 779e fcbb ed52 ea3a
00000030: 2344 383d 8f71 dfbc e52b e53b 3f0c e3bd
00000040: 44d5 0abe 5edb f0bc 0068 243e b30b 6b3d
00000050: 1648 ddbc bbae e2bc 93cb 8aba c597 e2bc
00000060: b4ec a73c ac3c 813e 6afa 093e a85c 58bc
00000070: 000f 9c3d 6158 073e 996c 023c 50f7 81bc
00000080: 6336 403e 5c63 24b8 3dff 203c dcc1 69bc
00000090: 8b79 a73d a161 4e3e a838 52bd 979d 59bd
000000a0: 6446 f8bc 8d8c cdbb 09e0 8bbc d5cd 85bd
000000b0: 736c 083e 7412 d9bd 83ea bebd 8e73 81bc
000000c0: b828 c2bb 337b e1bb 7182 bc3b 50b6 e2bc
000000d0: 5e61 703c a92f 893d 2d88 19bd 5ab7 ab3b
000000e0: 1d3e 94bc cb47 3dbd 62f5 a4bc 5625 9c3c
000000f0: 16d0 0d3d 206f 28bb da91 813b a507 d33c
00000100: a33c 26bd 9965 123d 2ec5 393c cc12 7f3c
00000110: c2e9 70bc fa67 fa3b 5406 f2bc 6dcf c9bc
00000120: cc19 3fbd a2e6 b0bc a6ad 9dbb 197e bfbc
00000130: 618b d6ba fa21 263d aac6 2bbd 566e 01ba
00000140: 1598 313d 1da3 43bc b271 72bc d4c0 7fbc
00000150: a8d9 82bc 21c0 91bc 09be 0dbd f952 13bd
00000160: 9d0f bb3a 6459 b2bc 0be0 2fbc 1cdf ffba
00000170: 73d4 6ebd fa95 69bd 35d6 b8bd f306 15bd
00000180: 7dc5 6ebb 1a4a 1dbb 038b 003c 3cd4 683c
00000190: 11e2 cb3a c7fc a83b cc32 ffbb 015f 8e3c
000001a0: 3183 37bb f6fb 06bc 7dc2 35bd b2d0 5c3d
000001b0: db12 96bd 4e21 86bd aeda 0cbb b392 a5bc
000001c0: ee40 403c 6dcd 97bd c6a3 33be 6ac4 acbd
000001d0: b2e4 eb3c f87c 8e3b 169e 0fbc 7e6c 62bc
000001e0: bf0a cd3c 42fe 9ebe 9ad5 a1be 8ba5 f8bd
000001f0: 4084 8dbd f4e9 673c 03ea c03b d180 5d3d
00000200: 6789 873d 3245 b6bd bcb6 f9bd 28e9 87bc
00000210: c3f7 83bc 790f d6bb abb7 0a3e ea16 7c3e
00000220: fd4f b43d 0e66 9abd 15b5 86bd 7982 38bd
00000230: 00c0 273c 2bac 2037 1dbd 05bc 632e 82bd
00000240: 399c 19bd 9e00 3ebb 5d9b b73a 83d7 763c
00000250: db49 27bc 84ef 40bc 26ec fb3c 9b4a e53b
00000260: d59a c9bb ef89 613c 38bd 893b 984b 36bc
00000270: 3a00 5bbb f4d0 2dbd baf7 a8bd 8edb 21be
00000280: ffd7 e7bc 14d0 c33c 2ae4 0a3c 2d97 4fbd
00000290: 5264 41bd bad1 a13c 9712 95be ca18 ccbd
000002a0: 22a2 923b 42f1 0dbc 11fe 61bd 1fd8 7f3d
000002b0: fcce d53c 29a6 c9bd 223e dc3c 0a90 b53c
000002c0: b4b9 dfbb 171c aebd 3f05 633c 11a7 3d3e
000002d0: cba8 5e3e f0e2 153e 8823 3d3b 7a97 12bd
000002e0: 68b9 f4bd 1968 3c3e 4d0e d13d 83de 823d
000002f0: cc72 72bd 1cd4 693b 81d9 b93b 8f0f 4dbd
00000300: 0fc9 0abe b366 04be 3304 a8bd 00d2 d0bb
00000310: 22a8 d3bb eac9 84bc 6729 02bc e677 1b3b
00000320: dbc3 03bc 19ee f4bb a6bb 77bb 1b19 893b
00000330: b639 7dbc 2550 c5bd acda 8fbd 05e3 663d
00000340: 0a21 bd3d 51a3 51bc 13b2 5b3c 0038 0ebd
00000350: aa84 85be 4a3c 373e b0e2 0a3e 194c b93d
00000360: 562d f9bb 3bab 32bc 850f 7d3d 70f3 5bbe
00000370: ac0f 9b3b 25ae 7a3d 51dc 563e fc38 55bc
00000380: 4e1b c1bc b374 d93d 1fb6 89bc 5a73 213e
00000390: 3300 39be 23a1 003d bfe5 c23b 4a65 c4bc
000003a0: 5d5e 9ebc 03d3 9e3b f0b0 bc3e 4b96 06be
000003b0: 0314 ffbd 8953 7abc cb3d 733c 5ee4 83bd
000003c0: 7b9a 813d 792d 023c 06e5 8fbc d6df 73bd
000003d0: 58a7 d6bb 4999 94bb ae19 67bd 2807 95bd
000003e0: df63 8c3d d607 20bd 88e6 92bc d1ec 543c
000003f0: 26b4 033c 3b4b 403d 535c 273e e6a2 e93d

fc1.bias f4 [10]
0.024288796 0.41375184 0.017434448 -0.10158017 0.036962412 -0.007927178 -0.13631244 0.17022794
-0.1732039 -0.24968983
00000000: 4cf9 c63c 48d7 d33e b0d2 8e3c 4409 d0bd
00000010: e665 173d ffe0 01bc 7d95 0bbe 3c50 2e3e
00000020: 5d5c 31be b1ae 7fbe

momentum_buffer f4 [32, 1, 3, 3]
0.000182449 -3.3400713e-05 -8.451254e-05 0.00076253735 0.00042564888 0.0008090525 0.000958245 -0.0004932229
-0.0011759911 -0.00035993397 -0.0002499058 0.00010193549 -0.00027916944 -0.0002005158 0.00074743695 -9.3858216e-05
0.00031218323 0.0006977475 -0.0012223423 -0.0008466726 -3.071268e-05 -0.0008683294 -0.0004574639 0.0005429656
-0.00013290638 0.0008750831 0.0022632026 -0.0029963828 -0.003906444 -0.0031909014 -0.0025230378 -0.0012509627
-0.00071957294 -0.0010092144 -0.00087072625 -0.00074394874 5.271886e-05 -8.221383e-05 -0.0002837846 -0.0005054478
-0.00023732887 -0.00032715837 -0.0011425174 -0.0003766662 -0.00044827146 -0.0014067488 -0.001437439 -0.00019332739
-0.00075596996 -0.00017046572 0.00015574026 -0.00027687952 0.00031245925 0.0009971437 6.306303e-05 0.0006744376
0.00088234904 -0.00032406638 0.0006358397 0.0002694063 -0.00066806364 0.0003417566 0.00086906325 -0.0020311084
-0.0015542692 0.0011741867 -0.000121232464 -0.00011726565 0.000118016455 -0.0008351987 -0.00031713228 0.001466799
-0.00039042422 -0.00061434 -0.0015853487 0.0005528171 0.0002649069 -0.0011904135 0.00037421388 0.0001272871
-0.0007410147 -0.0008520117 -0.0011181394 -0.0002797229 -0.00044774884 0.0003281175 -6.0614955e-05 -0.00057925447
0.00036051506 0.0018627126 0.0012467579 0.00078813627 0.0004396052 0.0007420166 -8.991913e-05 -0.00016977856
-0.00019792511 -0.00023332621 -7.42818e-05 0.00045088682 -0.00028658484 -0.0016860783 -0.00028606644 -0.00028134498
-0.002506635 0.00012051777 -0.00055744033 -0.0011146718 -0.0018976456 -0.0031442177 -0.002987125 -0.0020340856
-0.0018982562 -0.0016000071 -0.0017019149 -0.0018020094 -0.0016496736 -0.0002241854 -0.00036638652 -0.00016647953
-0.00038223408 -0.00036341947 8.173687e-05 -0.0003186008 -0.00033308598 3.5096597e-05 -0.0004384683 -0.0007727626
-0.0007477097 -0.0005291994 -0.00047942603 -0.0006055968 0.00027412822 0.00044680742 0.00016454933 -0.001242279
-0.002312587 -0.0014111309 -0.002086695 -0.002205448 -0.0008696636 -0.00081756385 -0.0004977358 -0.00015160319
-2.4664423e-05 -0.00015898797 0.00020656317 -0.00036533535 -0.00048235193 -0.000783478 -0.001888493 -0.002054016
-0.0019840272 0.00052192446 -0.00081153837 -0.0012187613 -0.0015514615 -0.0012318452 -0.0004209601 -0.0025288824
-0.0021863517 0.00061175664 0.0012886284 0.000598576 0.00012502566 0.0008272511 0.0003642721 0.0009146695
-5.686969e-05 0.00067888526 0.00043753962 -0.0018697801 -0.0026646017 -0.0026185007 -0.0014031001 -0.0015407857
-0.0013203061 -0.0010320133 -0.00096236117 -0.0008089024 -0.0013404712 -0.001626346 -0.0008896118 -0.0012077255
-0.0017885327 -0.0013774504 0.00024287461 -0.00013727626 -0.000103643964 -0.0002864189 1.6687807e-05 0.0001481632
0.0003699638 0.0004933738 0.00038273018 0.00012370157 0.0002512935 0.000105725594 -0.00034669507 -0.0013437766
-0.0009239225 -0.00046291572 -0.00011942662 0.0010347851 0.00036671327 0.0013161382 0.00111508 6.9819536e-05
0.00047558252 -0.00032955423 -3.7929306e-06 -0.00031563995 -0.0007755075 -0.0004900545 0.001219008 0.001082318
-0.0014217836 -0.0016851765 -0.00020410604 -0.002706235 -0.0014680361 -0.0002227765 -0.0027685673 -0.0014802843
-0.0013025535 0.00020193716 0.0005429042 0.0011250734 -0.00056211697 0.0011796979 0.0006058658 -0.0020099578
-0.0010196343 -0.0005838441 0.0023135599 0.0021993075 0.00056263607 0.0014756991 0.00073364977 -0.00030478995
-0.00042407596 -0.00045796114 -0.00021488844 -0.00017550519 -0.0004840109 -0.0005155991 -0.0015471502 -0.0009934239
-0.0005168679 -0.0021867298 -0.0022283073 -0.0009012693 -0.0011483358 -0.001297758 -8.705883e-05 -0.0008007748
00000000: c84f 3f39 be17 0cb8 533c b1b8 04e5 473a
00000010: a029 df39 9816 543a bc32 7b3a a14b 01ba
00000020: b723 9aba 85b5 bcb9 ca05 83b9 33c6 d538
00000030: 7d5d 92b9 8d41 52b9 a5ef 433a bfd5 c4b8
00000040: 86ac a339 0be9 363a 0037 a0ba 3df3 5dba
00000050: 7dd1 00b8 9aa0 63ba c4d7 efb9 ce55 0e3a
00000060: c95c 0bb9 d565 653a 3d52 143b f65e 44bb
00000070: a101 80bb 711e 51bb 8d59 25bb 58f7 a3ba
00000080: b9a1 3cba 9e47 84ba 7341 64ba 8e05 43ba
00000090: 721e 5d38 376a acb8 edc8 94b9 0780 04ba
000000a0: 7cdb 78b9 7486 abb9 86c0 95ba 487b c5b9
000000b0: fa05 ebb9 a862 b8ba 7368 bcba edb7 4ab9
000000c0: 492c 46ba 0bbf 32b9 354e 2339 242a 91b9
000000d0: 92d1 a339 97b2 823a b540 8438 becc 303a
000000e0: 714d 673a 74e7 a9b9 7bae 263a 1a3f 8d39
000000f0: fe20 2fba cb2d b339 d9d1 633a 581c 05bb
00000100: 9fb8 cbba 2be7 993a 2f3e feb8 84ec f5b8
00000110: 9a7f f738 3cf1 5aba c644 a6b9 9b41 c03a
00000120: dab1 ccb9 a90b 21ba 7acb cfba edea 103a
00000130: 34e3 8a39 a607 9cba 2332 c439 5f78 0539
00000140: a840 42ba 8a59 5fba 888e 92ba c6a7 92b9
00000150: d5bf eab9 2f07 ac39 d03c 7eb8 1cd9 17ba
00000160: 8303 bd39 4326 f43a 416a a33a ee9a 4e3a
00000170: d07a e639 e483 423a f792 bcb8 9606 32b9
00000180: 1e8a 4fb9 07a9 74b9 bdc7 9bb8 0165 ec39
00000190: c440 96b9 66ff dcba 30fb 95b9 7c81 93b9
000001a0: 5b46 24bb 7cbe fc38 3021 12ba 2e1a 92ba
000001b0: 6cba f8ba 380f 4ebb a4c3 43bb 4b4e 05bb
000001c0: e9ce f8ba 54b7 d1ba ca12 dfba 6731 ecba
000001d0: dc39 d8ba 4f13 6bb9 9117 c0b9 0291 2eb9
000001e0: 9766 c8b9 5689 beb9 266a ab38 e009 a7b9
000001f0: 0ba2 aeb9 af34 1338 38e2 e5b9 3893 4aba
00000200: f301 44ba f8b9 0aba 795b fbb9 eac0 1eba
00000210: deb8 8f39 7a41 ea39 e08a 2c39 f7d3 a2ba
00000220: c68e 17bb b2f5 b8ba efc0 08bb 4789 10bb
00000230: 23fa 63ba c851 56ba 7c7a 02ba acf7 1eb9
00000240: 72e6 ceb7 02b6 26b9 e198 5839 7b8a bfb9
00000250: 2ee4 fcb9 5262 4dba 4f87 f7ba ac9c 06bb
00000260: 7406 02bb c2d1 083a 6bbd 54ba d8be 9fba
00000270: 695a cbba de75 a1ba 4fb4 dcb9 9bbb 25bb
00000280: e548 0fbb 4b5e 203a 32e7 a83a c1e9 1c3a
00000290: 5219 0339 e2db 583a c6fb be39 6ec6 6f3a
000002a0: 5d87 6eb8 38f7 313a 9365 e539 6913 f5ba
000002b0: 99a0 2ebb 279b 2bbb 3ae8 b7ba 30f4 c9ba
000002c0: 1f0e adba 9f44 87ba f746 7cba 850c 54ba
000002d0: c0b2 afba 1e2b d5ba d634 69ba 8b4c 9eba
000002e0: 336d eaba 918b b4ba 28ac 7e39 d1f1 0fb9
000002f0: 6e5b d9b8 7e2a 96b9 cbfc 8b37 425c 1b39
00000300: b3f7 c139 c155 013a 2da9 c839 e3b5 0139
00000310: 0bc0 8339 ffb8 dd38 a0c4 b5b9 a921 b0ba
00000320: 6433 72ba 7fb3 f2b9 ae74 fab8 a0a1 873a
00000330: 6c43 c039 4582 ac3a e027 923a 146c 9238
00000340: 9b57 f939 05c8 acb9 0d8a 7eb6 7a7c a5b9
00000350: 6d4b 4bba 0077 00ba 1fc7 9f3a 91dc 8d3a
00000360: 245b baba 24e1 dcba 4c05 56b9 175b 31bb
00000370: 1e6b c0ba 1d99 69b9 da70 35bb 1906 c2ba
00000380: 71ba aaba 18bf 5339 af51 0e3a 3377 933a
00000390: 085b 13ba 18a0 9a3a f7d2 1e3a 7fb9 03bb
000003a0: 40a5 85ba 1d0d 19ba 189f 173b 4222 103b
000003b0: de7d 133a 3f6c c13a 6752 403a 37cc 9fb9
000003c0: 8356 deb9 811a f0b9 ad53 61b9 d107 38b9
000003d0: d8c2 fdb9 4529 07ba bfc9 caba c635 82ba
000003e0: 6b7e 07ba 3d4f 0fbb cb08 12bb 2943 6cba
000003f0: c183 96ba 8819 aaba 5a93 b6b8 16eb 51ba

momentum_buffer f4 [32]
-0.00096486066 0.00048836 0.0017948623 0.002133683 -0.00012816787 -0.00017507073 -0.00024535193 0.0011129964
-0.000958937 0.0005636459 0.0007655558 -0.0011169245 0.0042064213 0.0008574671 -0.0003530437 -0.00037001615
-4.8388454e-05 -0.0012263282 0.00052028545 0.0024336276 -0.0007308373 -0.00012337566 0.00028037274 0.00046140663
-0.0012327245 -0.0003985863 0.0012754031 0.0010065794 -0.0004562754 0.00025401454 -0.00014408783 -0.00061756093
00000000: b4ee 7cba 4905 003a 9641 eb3a 43d5 0b3b
00000010: cd64 06b9 3193 37b9 94a2 80b9 f6e1 913a
00000020: 2c61 7bba a3c1 133a 94af 483a c465 92ba
00000030: 05d6 893b a5c7 603a b918 b9b9 bafe c1b9
00000040: b5f4 4ab8 bfbc a0ba c463 083a 7f7d 1f3b
00000050: a995 3fba 675e 01b9 fefe 9239 f3e8 f139
00000060: 5f93 a1ba 59f9 d0b9 6d2b a73a 33ef 833a
00000070: 3f38 efb9 412d 8539 4816 17b9 d0e3 21ba

momentum_buffer f4 [64, 32, 3, 3]
2.5032004e-06 -1.6845472e-05 -0.00032170286 2.5667675e-06 5.284149e-06 -8.015768e-05 6.5370514e-06 1.2855859e-05
-1.7219352e-05 -0.00031357532 -0.00019650966 1.24917415e-05 -0.00030558163 -0.0001714075 -1.5602955e-06 -0.0003081318
-0.00030562808 -0.00028652028 -2.34031e-06 2.833577e-06 -9.765397e-06 -1.7146868e-06 -2.7767117e-05 -0.00018875903
-7.5846833e-07 -4.136125e-07 -5.1403815e-05 -0.000108489825 -5.9178714e-05 -3.0273739e-05 -0.00019303277 -0.00046349605
-0.00064058066 -1.8033408e-05 -5.959438e-05 -7.86674e-05 -8.049536e-05 -6.93517e-05 -5.4782042e-05 -1.9067585e-06
-3.332251e-05 -2.3360739e-05 -4.384568e-06 -5.116819e-06 -3.49319e-07 -8.0144126e-08 1.3773223e-07 -9.2244954e-05
-5.4291487e-09 1.025946e-07 -8.8986315e-05 -6.06852e-07 1.7363715e-07 -6.0718917e-06 -1.445789e-05 1.8670104e-05
-0.0007092444 1.838202e-08 -7.272829e-08 -8.667576e-05 2.8749824e-07 -6.4185356e-06 -8.385129e-06 -3.6630843e-07
5.3722437e-07 -4.6342946e-05 -2.3133686e-07 -1.9065183e-05 -0.00016117214 -2.0429995e-07 2.375594e-06 -2.4075527e-05
-0.00012056268 -8.149163e-05 -3.469537e-05 -0.00010085536 -0.00017939086 -0.00021454578 1.2697093e-07 -3.0221097e-05
8.027525e-06 -5.9702863e-05 -0.0006813668 -0.00078735384 5.197584e-06 -0.00022940093 -0.00018107652 -2.7333065e-06
1.428937e-05 2.2639813e-05 -7.304261e-05 -4.608853e-05 -8.0095725e-07 -7.295804e-05 -3.3651882e-05 -0.00030999485
-7.510825e-05 -7.6157e-05 -6.45281e-05 -0.00034024438 -0.00080745504 -0.0006314981 -0.00012831026 -0.00041866692
-0.00027054147 -4.5373997e-07 -6.138558e-05 2.1911632e-05 -0.00022795235 -0.00023529623 -0.00011446233 -0.00021860871
-0.00065972906 -0.0011967826 -0.00011721369 -0.00014614557 -0.00014272121 -0.00032655272 -0.00022189149 -1.0153343e-06
-0.0003269985 -0.00022115094 -2.6259195e-05 -0.0003359181 -0.00034121066 -0.00030858966 -2.791635e-07 -0.0003200868
-0.0009999817 -3.4988865e-08 4.5170127e-06 -0.000114268645 4.5848938e-07 2.2591333e-09 -9.1265965e-06 3.1186684e-09
-0.00022332309 -0.0006397623 -3.028503e-08 7.657192e-06 -0.00010064636 -3.9581087e-07 -3.803437e-06 -6.0226207e-06
-7.382493e-05 -0.00013260808 -7.747609e-05 5.903429e-07 -1.2250496e-06 1.3886677e-05 -3.1525508e-06 8.010139e-06
1.0940646e-05 1.08987815e-05 -9.0113346e-05 -0.00017007256 -0.00016794952 -0.00029907952 -0.00023220624 -4.5702263e-06
-4.3620326e-05 -3.0086667e-05 -6.448873e-08 7.594735e-06 -0.000949193 1.6270592e-08 1.23939525e-08 3.799883e-05
-3.4333937e-06 3.5849603e-06 1.3543402e-06 -0.0002010075 -0.0003637167 -0.00027077072 -0.00015144465 -0.0004727708
-0.0005876236 -9.487822e-06 -4.6903697e-05 -4.3359418e-05 -1.0641257e-07 -0.00014925253 -0.00031773228 1.0277263e-08
2.19554e-06 -5.4104574e-05 -2.5661892e-12 8.696759e-08 -1.8758748e-06 5.934623e-09 4.673362e-10 -0.00011888752
2.3946825e-11 -2.690117e-11 -3.473627e-05 -2.474779e-08 -4.1486754e-07 -1.5435378e-06 -3.4365786e-07 7.468414e-05
-0.00012446924 -7.874331e-07 -0.00024026117 -0.00086947734 -3.5102292e-07 6.542388e-06 1.6139244e-05 1.3051655e-06
-6.940704e-05 -0.000564214 2.5453502e-07 -3.422751e-06 5.279589e-05 4.4451826e-06 2.4486171e-05 4.2327007e-05
-4.3115875e-07 3.0164902e-06 -0.00066186645 4.3012935e-09 3.419638e-06 -7.458111e-05 3.9001213e-07 -2.4904448e-06
1.3453562e-06 -7.163795e-05 -3.770971e-05 -9.398435e-06 -0.0001253858 -0.00019141109 -0.00012277711 -1.8261636e-06
-3.198535e-05 1.3937066e-05 -0.00027471746 -0.00018713 -4.1800224e-05 -0.00027499252 -0.00012986873 -0.00016558924
-0.00028273914 -0.00028201693 -0.00026001997 -0.00021041467 -0.00013383616 -1.5594123e-05 -0.00021064228 -0.00018359676
-6.391095e-05 -0.0002160692 -0.0002195415 -0.00019476675 1.5535414e-07 1.508103e-07 -0.00013471037 1.4586894e-07
00000000: a8fc 2736 604f 8db7 3aaa a8b9 bb40 2c36
00000010: 7f4e b136 541a a8b8 d858 db36 7eaf 5737
00000020: 4772 90b7 5e67 a4b9 290e 4eb9 9f93 5137
00000030: 7936 a0b9 dabb 33b9 586b d1b5 c08c a1b9
00000040: b53c a0b9 1a38 96b9 380e 1db6 7b28 3e36
00000050: 10d6 23b7 3124 e6b5 6eed e8b7 9eed 45b9
00000060: 8c99 4bb5 780e deb4 6d9a 57b8 0885 e3b8
00000070: a936 78b8 5cf4 fdb7 d768 4ab9 6301 f3b9
00000080: a4ec 27ba 7346 97b7 faf4 79b8 3dfa a4b8
00000090: 9ecf a8b8 e970 91b8 c5c5 65b8 b9eb ffb5
000000a0: c6c3 0bb8 cef6 c3b7 271f 93b6 24b1 abb6
000000b0: 0a8a bbb4 b31b acb3 8ce3 1334 a273 c1b8
000000c0: 4c8b bab1 fa51 dc33 2a9e bab8 8de6 22b5
000000d0: 0471 3a34 27bd cbb6 2a90 72b7 be9d 9c37
000000e0: 96ec 39ba 7de6 9d32 cd2e 9cb3 b2c5 b5b8
000000f0: 7559 9a34 cd5e d7b6 dbad 0cb7 0ca9 c4b4
00000100: c735 1035 5c60 42b8 6465 78b4 2bee 9fb7
00000110: 5100 29b9 8b5d 5bb4 656c 1f36 cdf5 c9b7
00000120: 99d6 fcb8 7ce6 aab8 df85 11b8 4f82 d3b8
00000130: de1a 3cb9 b2f7 60b9 8155 0834 5083 fdb7
00000140: f5ad 0637 7669 7ab8 c09d 32ba 6c66 4eba
00000150: e866 ae36 588b 70b9 5cdf 3db9 d96d 37b6
00000160: 60bc 6f37 a1ea bd37 742e 99b8 2f4f 41b8
00000170: 5d01 57b5 0d01 99b8 6f25 0db8 ce86 a2b9
00000180: 6f83 9db8 7ab6 9fb8 4353 87b8 d462 b2b9
00000190: 64ab 53ba 1f8b 25ba 068b 06b9 8680 dbb9
000001a0: 76d7 8db9 8c99 f3b4 22bc 80b8 dfce b737
000001b0: 7e06 6fb9 dab9 76b9 7f0b f0b8 543a 65b9
000001c0: abf1 2cba 5cdd 9cba 9fd0 f5b8 a73e 19b9
000001d0: 6fa7 15b9 2a35 abb9 8bab 68b9 9f46 88b5
000001e0: ff70 abb9 c1e4 67b9 3147 dcb7 2a1e b0b9
000001f0: 85e4 b2b9 34ca a1b9 f0df 95b4 53d1 a7b9
00000200: d111 83ba aa46 16b3 d890 9736 83a3 efb8
00000210: 4d26 f634 183f 1b31 6f1e 19b7 3250 5631
00000220: d62b 6ab9 b9b5 27ba be12 02b3 6477 0037
00000230: 1a12 d3b8 d57f d4b4 8d3e 7fb6 eb15 cab6
00000240: 75d2 9ab8 b60c 0bb9 a97a a2b8 0e78 1e35
00000250: 626c a4b5 d3fa 6837 6990 53b6 4963 0637
00000260: b78d 3737 e9d9 3637 3cfb bcb8 8155 32b9
00000270: 9b1b 30b9 c6cd 9cb9 637c 73b9 f259 99b6
00000280: f8f4 36b8 a062 fcb7 0e7d 8ab3 47d6 fe36
00000290: 44d3 78ba 69c3 8b32 2eed 5432 ef60 1f38
000002a0: 4169 66b6 2695 7036 c6c6 b535 8ac5 52b9
000002b0: 3bb1 beb9 3bf6 8db9 1dcd 1eb9 39de f7b9
000002c0: c10a 1aba e32d 1fb7 76ba 44b8 d2dc 35b8
000002d0: ee84 e4b3 ac80 1cb9 4e95 a6b9 e18f 3032
000002e0: 1757 1336 58ee 62b8 5b94 34ac f0c2 ba33
000002f0: 91c6 fbb5 7fe9 cb31 dd75 0030 4053 f9b8
00000300: 75a3 d22d 0da0 ecad c9b1 11b8 f794 d4b2
00000310: f6ba deb4 8e2b cfb5 fa7f b8b4 be9f 9c38
00000320: f583 02b9 fe5f 53b5 9eee 7bb9 a3ed 63ba
00000330: 3974 bcb4 af86 db36 c362 8737 252d af35
00000340: 9f8e 91b8 c3e7 13ba 07a7 8834 6ab2 65b6
00000350: 2871 5d38 d427 9536 a767 cd37 4788 3138
00000360: 027a e7b4 e86e 4a36 1b81 2dba 94ca 9331
00000370: ef7c 6536 6e68 9cb8 dc62 d134 8421 27b6
00000380: 1692 b435 553c 96b8 7e2a 1eb8 f9ad 1db7
00000390: ff79 03b9 86b5 48b9 bbbd 00b9 811a f5b5
000003a0: 0228 06b8 3ed3 6937 f407 90b9 5438 44b9
000003b0: a652 2fb8 df2c 90b9 5f2d 08b9 06a2 2db9
000003c0: 9b3c 94b9 acdb 93b9 4a53 88b9 c2a2 5cb9
000003d0: 5f56 0cb9 20d0 82b7 dbdf 5cb9 e183 40b9
000003e0: ee07 86b8 a290 62b9 b934 66b9 4d3a 4cb9
000003f0: 6ccf 2634 6bee 2134 0a41 0db9 26a0 1c34

momentum_buffer f4 [64]
-0.0006039001 0.00022366988 0.00052269903 -0.000533738 -0.0005012458 -0.00071669946 -0.00076933764 0.00020141172
-1.799882e-05 1.0929834e-05 -0.0016941691 4.1207654e-06 0.00042096837 -0.0004497199 -9.66363e-05 0.000166242
2.1679378e-05 -0.00030682562 -0.00060836377 0.00013637294 -0.0001451978 0.00023389055 -0.00030412117 -8.7494314e-05
-0.00022969676 -0.0005921797 -0.0009942264 8.445442e-05 -4.598435e-05 -0.0003190789 -0.00020752834 -0.0007304897
-0.00033625547 8.57148e-05 0.00039852934 -0.00058401603 0.0006591001 -0.00085477246 -0.00040138132 6.530568e-05
6.917753e-06 -0.00027688022 9.732819e-05 -0.00034625808 0.000776467 -1.7371203e-05 5.032715e-05 -0.00043163402
-1.1542905e-05 -0.00015208358 -0.00018048959 8.02863e-05 -0.000499521 -0.00056389574 -5.039293e-05 0.00052494946
-0.00020947105 0.00014606185 -0.00029828976 9.076944e-05 -7.802449e-05 -5.0809685e-05 0.00030765668 0.00041992642
00000000: 0d4f 1eba ed88 6a39 bd05 093a 8dea 0bba
00000010: 0966 03ba e3e0 3bba 60ad 49ba 0c32 5339
00000020: 2cfc 96b7 485f 3737 e20e deba 1b45 8a36
00000030: 6bb5 dc39 62c8 ebb9 38a9 cab8 3f51 2e39
00000040: 1cdc b537 70dd a0b9 9a7a 1fba 55ff 0e39
00000050: 3d40 18b9 8440 7539 7472 9fb9 277d b7b8
00000060: c1da 70b9 823c 1bba b450 82ba 1f1d b138
00000070: 52df 40b8 0c4a a7b9 f79b 59b9 557e 3fba
00000080: 724b b0b9 c8c1 b338 b4f1 d039 a718 19ba
00000090: 75c7 2c3a cf12 60ba 7d70 d2b9 b8f4 8838
000000a0: 0c1f e836 3c2a 91b9 ad1c cc38 f989 b5b9
000000b0: d18b 4b3a 60b8 91b7 5e16 5338 f04c e2b9
000000c0: 66a8 41b7 a078 1fb9 ce41 3db9 615f a838
000000d0: 49f2 02ba 67d2 13ba ff5c 53b8 c39c 093a
000000e0: 75a5 5bb9 2e28 1939 c663 9cb9 795b be38
000000f0: 14a1 a3b8 7c1c 55b8 fb4c a139 9229 dc39

momentum_buffer f4 [10, 3136]
6e-45 4.8284474e-30 -5.169283e-14 1.710632e-13 -3.3680678e-08 1.8800374e-07 6.027388e-08 1.4282348e-35
-9.0124077e-23 2.2728582e-10 -6.8173107e-09 6.8456193e-06 6.676956e-08 7.809257e-07 1.6258858e-13 9.576364e-11
5.0054652e-08 5.8311343e-06 6.6526405e-07 -7.05111e-08 1.9343206e-06 2.726772e-10 7.260296e-08 3.6344534e-08
2.820288e-07 6.539504e-09 -7.5331634e-08 5.0155144e-08 1.8202272e-06 3.495189e-05 5.0345735e-11 2.6989616e-10
2.258761e-07 -4.8167575e-14 4.717351e-08 7.0430456e-06 0.0010469896 3.6449066e-09 3.9191645e-17 6.19279e-22
7.128215e-29 8.0913446e-07 -2.27888e-08 1.8098828e-09 2.4588589e-08 1.09550556e-16 2.2418495e-22 6e-45
2.5423946e-05 6e-45 4.7174143e-11 6.047957e-31 9.364852e-14 1.9999717e-08 1.6354433e-06 5.888626e-07
7.1894585e-10 9.811325e-13 5.6673716e-08 1.5916135e-07 -9.0938995e-10 -1.9436218e-08 5.514921e-10 7.6199106e-13
8.665011e-09 1.0750264e-05 2.2093954e-07 3.0867672e-10 2.8462022e-05 1.355727e-17 1.9194981e-09 3.4626762e-08
3.5172124e-07 7.4229627e-07 7.521537e-11 2.2844347e-08 7.462881e-24 2.40556e-07 2.1802796e-06 1.7888364e-13
0.00027496277 3.6045658e-09 4.3393003e-30 2.261811e-28 0.00017385716 8.587217e-05 1.4773924e-08 4.9142365e-28
5.265869e-29 8.365548e-33 6e-45 3.738355e-09 5.1792117e-08 5.3466e-09 4.3447678e-24 8.6395385e-32
6e-45 6e-45 6e-45 6e-45 6e-45 6e-45 6e-45 6e-45
6e-45 6e-45 1.3042996e-37 4.8962466e-29 2.0219768e-12 4.2659216e-05 2.4300262e-23 6e-45
6e-45 6.50282e-30 5.796641e-18 2.0156947e-05 3.1059317e-05 2.9766306e-07 3.3122928e-11 3.1e-44
3.8104018e-14 4.5243173e-06 -1.0220859e-07 3.4171908e-09 2.3362337e-07 6e-45 6e-45 4.746197e-06
0.00011573089 1.2652027e-09 9.776855e-07 1.1387548e-06 6e-45 5.6401174e-08 0.00040644864 1.6717036e-05
1.2151376e-06 1.9270343e-12 -1.6347251e-17 6e-45 6e-45 3.8043935e-10 3.3549918e-09 1.6660741e-12
3.223904e-18 6e-45 6e-45 6e-45 8.077734e-31 1.0626171e-16 4.0773144e-12 5.9142685e-06
5.8189456e-36 6e-45 6e-45 1.3040297e-09 4.5610354e-23 3.9396296e-38 6.258892e-10 0.00043956417
2.9012936e-05 -6e-45 1.7041427e-12 6.2993724e-23 4.616602e-10 0.00037961858 2.9835812e-06 5.284512e-07
6e-45 7.844254e-36 4.577301e-10 3.791698e-05 -2.3894737e-08 1.2580797e-07 9.315284e-05 4.0116026e-16
2.7535016e-12 -2.6893868e-08 7.747558e-10 3.8991493e-06 0.0004229844 0.00032317208 6e-45 9.568685e-17
1.696573e-09 9.8543875e-05 6.326206e-05 4.3524233e-05 -2.5714237e-13 -6e-45 2.086432e-09 5.0042075e-07
4.4014445e-08 2.1538849e-11 4.1413365e-22 2.314648e-34 6e-45 6e-45 4.0020186e-29 2.0340876e-07
1.1487853e-16 6e-45 3.3475775e-14 6e-45 6.571665e-22 4.0027495e-12 7.962979e-11 5.6345446e-11
-3.5889682e-09 6e-45 1.7418882e-26 5.608252e-10 4.1415406e-11 4.0492715e-15 6.8159804e-11 6.56472e-06
6e-45 7.24e-43 5.767541e-14 3.6153156e-09 4.994058e-09 6.1831396e-10 3.7108244e-10 6e-45
7.1020396e-35 4.0015468e-05 2.4050948e-07 5.2071725e-10 2.9773406e-11 3.7510062e-25 6.754475e-30 4.9517573e-17
0.000886562 0.00010993845 3.611279e-10 6.342681e-14 2.976448e-26 1.446e-42 6e-45 3.8001655e-10
2.2220431e-10 5.2095685e-19 1.3249965e-34 1.58826e-40 6e-45 1.9170455e-05 2.4658042e-05 2.4657993e-05
2.8258777e-05 2.7967028e-05 0.00023223722 3.479491e-05 1.1334378e-09 8.3245577e-10 -2.3810232e-09 5.473599e-05
00000000: 0400 0000 77dd c30e c6cd 68a9 9c99 402a
00000010: 4ca8 10b3 13de 4934 ea6f 8133 40e0 9705
00000020: 1ae8 d99a 45e7 792f b33d eab1 6cb3 e536
00000030: f462 8f33 cea0 5135 f80e 372a 2396 d22e
00000040: acfb 5633 10a9 c336 9994 3235 e36b 97b3
00000050: 60cf 0136 e7e7 952f e6e9 9b33 3d19 1c33
00000060: be69 9734 16b2 e031 01c6 a1b3 2a6a 5733
00000070: 884e f435 4e99 1238 426c 5d2e 8260 942f
00000080: 5988 7234 6fed 58a9 d39b 4a33 4d53 ec36
00000090: 243b 893a e079 7a31 54bd 3424 642a 3b1c
000000a0: c3b8 b410 4c33 5935 1ac1 c3b2 97bf f830
000000b0: e136 d332 3c9b fc24 f182 871b 0400 0000
000000c0: 8245 d537 0400 0000 5d79 4f2e 7644 440d
000000d0: b2e0 d229 d8cb ab32 6781 db35 5412 1e35
000000e0: 519f 4530 0615 8a2b 6969 7333 f0e5 2a34
000000f0: a1f8 79b0 b2f4 a6b2 ce97 1730 3e7b 562b
00000100: 1fdd 1432 085c 3437 663b 6d34 63b2 a92f
00000110: bac1 ee37 6616 7a23 2be8 0331 87b8 1433
00000120: 33d4 bc34 3642 4735 7d66 a52e 403b c432
00000130: 665a 1019 c425 8134 eb50 1236 b367 492a
00000140: e128 9039 31b4 7731 df05 b00e fb5b 8f11
00000150: 6d4d 3639 4516 b438 68d0 7d32 06bd 1b12
00000160: 7281 8510 e2be 2d0a 0400 0000 eb72 8031
00000170: 0972 5e33 31b5 b731 7f14 a818 954b e00b
00000180: 0400 0000 0400 0000 0400 0000 0400 0000
00000190: 0400 0000 0400 0000 0400 0000 0400 0000
000001a0: 0400 0000 0400 0000 3588 3102 ea44 7810
000001b0: b248 0e2c fcec 3238 8904 eb19 0400 0000
000001c0: 0400 0000 92e4 030f badb d522 b716 a937
000001d0: b045 0238 80ce 9f34 1aad 112e 1600 0000
000001e0: f19a 2b29 97cf 9736 c47d dbb3 dbd3 6a31
000001f0: e7d9 7a34 0400 0000 0400 0000 8641 9f36
00000200: 8cb4 f238 5de3 ad30 0539 8335 51d7 9835
00000210: 0400 0000 bf3d 7233 9d18 d539 903b 8c37
00000220: cf17 a335 5d9a 072c dbc6 96a3 0400 0000
00000230: 0400 0000 1426 d12f a48d 6631 a57a ea2b
00000240: d3e1 6d22 0400 0000 0400 0000 0400 0000
00000250: 9811 830d d805 f524 2f75 8f2c 2e73 c636
00000260: b582 f704 0400 0000 0400 0000 7739 b330
00000270: e28e 5c1a 6c7e 5601 090b 2c30 4e75 e639
00000280: ce60 f337 0400 0080 36d6 ef2b 3a4f 981a
00000290: e6cc fd2f 8b07 c739 8939 4836 e4da 0d35
000002a0: 0400 0000 2ed4 2605 c9a3 fb2f 0c09 1f38
000002b0: 1541 cdb2 d515 0734 0d5b c338 ce40 e725
000002c0: adc2 412c 3e04 e7b2 98f6 5430 70d5 8236
000002d0: 01c4 dd39 6c6f a939 0400 0000 8ca3 dc24
000002e0: db2c e930 57a9 ce38 8fab 8438 ca8d 3638
000002f0: 1fc2 90aa 0400 0080 e660 0f31 a754 0635
00000300: 650a 3d33 2d75 bd2d 1454 fa1b b2d5 9907
00000310: 0400 0000 0400 0000 2ced 4a10 9368 5a34
00000320: 2872 0425 0400 0000 f1c2 1629 0400 0000
00000330: cc9d 461c 90d5 8c2c 961b af2e 55cf 772e
00000340: cca1 76b1 0400 0000 1d82 ac14 9128 1a30
00000350: 9a25 362e f0e3 9127 8fe2 952e 8446 dc36
00000360: 0400 0000 0502 0000 9cdf 8129 4e71 7831
00000370: 3398 ab31 faf5 2930 3601 cc2f 0400 0000
00000380: facd bc06 48d6 2738 5f1f 8134 3822 0f30
00000390: e0f1 022e 112d e816 3dff 080f 085c 6424
000003a0: 2b68 683a c28e e638 3c88 c62f 11d3 8e29
000003b0: f662 1315 0804 0000 0400 0000 93ea d02f
000003c0: f450 742f 63c2 1921 4b1f 3007 beba 0100
000003d0: 0400 0000 3dd0 a037 bed8 ce37 a3d8 ce37
000003e0: 430d ed37 bc9a ea37 b484 7339 c0f0 1138
000003f0: 4cc7 9b30 ded2 6430 679f 23b1 5294 6538

momentum_buffer f4 [10]
0.00032263593 0.00021230876 0.00016888662 -1.2409976e-05 0.0009812517 0.00036116986 -0.0007018202 -0.00040957687
2.8694594e-05 -0.00095094834
00000000: 7627 a939 339f 5e39 2817 3139 7134 50b7
00000010: 589d 803a 665b bd39 5bfa 37ba 7abc d6b9
00000020: 2cb5 f037 1049 79ba
