models/final_model.pth (torch, 406002 bytes, 12 tensors)

conv1.weight f4 [32, 1, 3, 3]
0	0x3d94dcf9	0.0726871
1	0x3e9db183	0.30799493
2	0xbe5abbde	-0.21360728
3	0xbedd5727	-0.43230554
4	0xbf32b2b0	-0.69803905
5	0xbeff0e37	-0.49815533
6	0xbea11d34	-0.31467593
7	0x3f167390	0.58770084
8	0x3efc36b3	0.49260482
9	0xbe045920	-0.12924623
10	0xbe8164c7	-0.252722
11	0xbefecfb1	-0.4976783
12	0xbe7e1567	-0.24812852
13	0xbce08fc3	-0.0274123
14	0xbe97b7be	-0.29632372
15	0xbe948e07	-0.29014608
16	0xbe8d72e9	-0.27626732
17	0x3ea30db8	0.31846404
18	0x3eb19039	0.34680346
19	0x3ec2017e	0.37891763
20	0xbe780834	-0.24221879
21	0xbf33e31f	-0.70268434
22	0xbecfcdd7	-0.4058673
23	0xbf073124	-0.5280936
24	0xbea1b046	-0.31579798
25	0x3e3b40c4	0.18286425
26	0x3d255f46	0.040374063
27	0xbe00275a	-0.12515011
28	0xbd69f106	-0.057114623
29	0x3ed99054	0.42492926
30	0xbeca2578	-0.3948171
31	0xbe8f8473	-0.28030738
32	0xbe881c6c	-0.26584184
33	0xbecd55a0	-0.4010439
34	0xbe811c6d	-0.25217
35	0xbf0414f9	-0.515945
36	0xbed7a2d3	-0.42116413
37	0x3e96e591	0.2947202
38	0xbe2f4c6e	-0.17119
39	0x3cd44aee	0.025914636
40	0xbea6f1bf	-0.32606313
41	0x3e1a0df0	0.15044379
42	0x3ed477ee	0.4149775
43	0xbee24e70	-0.44200468
44	0x3c097e9d	0.008392003
45	0x3e59aea7	0.21258031
46	0x3eb77770	0.3583331
47	0xbeaae90d	-0.3338093
48	0x3e5744fc	0.21022409
49	0xbf04f604	-0.5193789
50	0xbed79d10	-0.42112017
51	0xbcc69010	-0.024238616
52	0xbeb7c203	-0.35890207
53	0x3e882d99	0.26597288
54	0xbec93a53	-0.3930231
55	0xbf473023	-0.77807826
56	0xbea3f2b9	-0.3202112
57	0x3f092107	0.5356602
58	0x3ea14b58	0.31502795
59	0x3f0db4f9	0.5535427
60	0x3dbb0747	0.091322474
61	0xbe2d32c9	-0.16913904
62	0xbf310e46	-0.69162405
63	0xbdda3ef1	-0.10656536
64	0x3f2f77e7	0.6854233
65	0x3c9a380c	0.018825553
66	0x3efbf248	0.49208283
67	0xbe64b413	-0.22334318
68	0xbf3025e4	-0.68807817
69	0xbf03dbb6	-0.5150713
70	0xbf167e13	-0.58786124
71	0x3d38e84a	0.045143403
72	0x3e9d0f70	0.3067584
73	0xbefe12aa	-0.49623615
74	0x3e9fa2ab	0.31178793
75	0x3e422764	0.18960339
76	0xbedb5724	-0.4283992
77	0x3df630a6	0.12020998
78	0xbf1666d7	-0.5875067
79	0x3cf4cab3	0.02988181
80	0xbd52a503	-0.0514269
81	0x3d07f10f	0.033188876
82	0xbe7dd135	-0.24786837
83	0x3f056b35	0.5211671
84	0xbe79407d	-0.24341007
85	0xbe5ec244	-0.21753794
86	0x3f21a99c	0.6314943
87	0xbf3416b1	-0.70347124
88	0x3ec8d817	0.39227363
89	0x3ef74848	0.48297334
90	0x3f62b3ac	0.8855541
91	0xbe8f75ed	-0.28019658
92	0xbf2ee4da	-0.6831795
93	0xbef3358d	-0.47501794
94	0xbed2113a	-0.41028768
95	0xbde76a31	-0.11299551
96	0xbf0fda4a	-0.5619246
97	0xbe1ea0aa	-0.15490976
98	0xbd16ea3a	-0.03684447
99	0xbe954c9d	-0.29160014
100	0xbf53a0f2	-0.8266746
101	0x3ec260bd	0.3796443
102	0xbe43524e	-0.19074365
103	0xbe133ea7	-0.14379369
104	0x3eff55bc	0.49870098
105	0xbe22af86	-0.1588727
106	0xbf7fda8e	-0.99942863
107	0xbca8665f	-0.020556627
108	0x3e33b9a8	0.17551291
109	0x3e87b4c7	0.2650511
110	0x3e9632ed	0.29335728
111	0xbe3d864c	-0.18508261
112	0x3eca74cc	0.39542234
113	0x3cf370ea	0.029716928
114	0xbf415966	-0.75527036
115	0xbf1b787a	-0.6073071
116	0xbf719f76	-0.94383943
117	0xbe455d1c	-0.192738
118	0xbe529e76	-0.2056826
119	0xbec5006b	-0.3847688
120	0xbe245312	-0.16047314
121	0xbde34e53	-0.110989235
122	0x3c35199b	0.011053468
123	0xbea24d5f	-0.31699654
124	0xbe478411	-0.19483973
125	0xbed2e381	-0.41189197
126	0xbdbaddc2	-0.09124328
127	0xbe2385a6	-0.15968952
128	0xbf0df8e6	-0.55457914
129	0x3f0ce89e	0.55042446
130	0x3f793529	0.9734674
131	0x3e6b8f4b	0.2300388
132	0xbf27a0b8	-0.6547961
133	0xbeb56ec8	-0.35436082
134	0x3db535cc	0.088481516
135	0xbd3c5ff2	-0.045989938
136	0x3ee517af	0.44744632
137	0xbf0a15ba	-0.539394
138	0x3daa4c94	0.08315387
139	0x3f454ddb	0.77071923
140	0xbf38de41	-0.7221413
141	0xbeee4be0	-0.46542263
142	0x3f1e3ba4	0.61809754
143	0xbdf79586	-0.12089066
144	0x3ea46534	0.32108462
145	0xbf68c919	-0.9093185
146	0xbe2f3e76	-0.1711367
147	0xbdb3edf4	-0.0878562
148	0xbe81c015	-0.2534186
149	0x3eea5bf0	0.45773268
150	0x3ddcdb99	0.107840724
151	0x3e962dc5	0.29331794
152	0xbd5be17c	-0.053681836
153	0xbf380b46	-0.718922
154	0xbe3641e3	-0.17798571
155	0x3f07720d	0.529084
156	0xbd95c04b	-0.073120676
157	0xbef0aa99	-0.47005156
158	0xbf852c3b	-1.0404123
159	0xbd07ec86	-0.03318455
160	0x3f8795bb	1.0592569
161	0xbe07b6e5	-0.13253362
162	0x3f3a1330	0.7268553
163	0x3e59f690	0.21285462
164	0xbe65537c	-0.22395128
165	0xbeca540f	-0.39517257
166	0xbf81977e	-1.0124357
167	0xbdf5a0ee	-0.119935855
168	0x3ef20bfb	0.47274765
169	0x3ce276f8	0.02764462
170	0x3f13a6c3	0.57676333
171	0xbdc1006e	-0.0942391
172	0xbe13f63e	-0.14449403
173	0x3e99d2e0	0.30043697
174	0xbed0a60e	-0.4075169
175	0xbdb1eaaa	-0.08687337
176	0x3db8a26f	0.09015357
177	0x3db71097	0.08938711
178	0xbe8850ac	-0.26624048
179	0xbee88255	-0.45411935
180	0x3e7b5803	0.24545293
181	0x3d3d56ce	0.04622536
182	0xbe783369	-0.24238361
183	0xbb011911	-0.0019698779
184	0x3f1ff45a	0.62482226
185	0x3ecbd3ff	0.39810178
186	0xbf0b4860	-0.5440731
187	0xbeca8b7c	-0.39559543
188	0x3d8deb1d	0.0692961
189	0x3ec9bf77	0.3940389
190	0xbf1946e4	-0.59873796
191	0xbe3b99ae	-0.18320343
192	0x3e4b65f2	0.19863108
193	0x3dba697c	0.09102151
194	0xbd982ae9	-0.074300595
195	0xbdc53ee1	-0.09631134
196	0xbe843d2d	-0.25827923
197	0xbec27ce5	-0.37985912
198	0x3c460d90	0.0120881945
199	0x3ee7abf6	0.45248383
200	0x3de46b09	0.11153228
201	0x3ef3980d	0.47576943
202	0xbdab238b	-0.08356389
203	0xbd75b72a	-0.059989132
204	0x3e5e7747	0.21725188
205	0xbeae85cb	-0.3408645
206	0xbf1f57d8	-0.62243414
207	0xbcb749d4	-0.022374071
208	0xbf10ec10	-0.566102
209	0x3df43d33	0.11925735
210	0xbf805e8c	-1.0028853
211	0x3f366e38	0.7126193
212	0x3f104929	0.56361634
213	0x3e00c8d9	0.12576617
214	0x3f54b67a	0.8309094
215	0xbf0bc7e8	-0.5460191
216	0x3e3851d1	0.1799996
217	0x3e9dbe13	0.30809078
218	0xbf68ee76	-0.9098886
219	0x3ea99182	0.33118826
220	0xbc745f5e	-0.014915315
221	0xbe970c30	-0.29501486
222	0x3e615737	0.22005926
223	0xbd63ec25	-0.055645127
224	0x3ea99436	0.33120888
225	0xbea0dee7	-0.3142006
226	0xbf1564b4	-0.58356786
227	0x3eeddb69	0.4645646
228	0x3dcd86b8	0.10035461
229	0xbf496332	-0.78666985
230	0xbe924684	-0.28569424
231	0x3f3ece48	0.7453351
232	0x3d000e84	0.031263843
233	0xbf383a43	-0.719639
234	0x3e75d2e1	0.24006225
235	0x3e9d7a60	0.30757427
236	0xbf1f0b6d	-0.6212681
237	0xbd91d9c2	-0.07121612
238	0xbe88f654	-0.26750433
239	0xbebc4b34	-0.36776125
240	0xbf351412	-0.7073375
241	0xbe921ca4	-0.28537476
242	0xbd18dfd0	-0.03732282
243	0xbe6d0ba0	-0.23148966
244	0xbf06eba9	-0.5270334
245	0xbdc93ba5	-0.098258294
246	0x3e1e5612	0.1546252
247	0x3db8ed0f	0.0902959
248	0xbf11f3aa	-0.57012427
249	0xbcc5506b	-0.024086198
250	0x3f12915d	0.57253057
251	0xbf258964	-0.64662766
252	0x3e145655	0.14486058
253	0xbed18a5a	-0.40925866
254	0xbf0bcfc9	-0.5461393
255	0x3f3f35ba	0.74691355

conv1.bias f4 [32]
0	0xbf1211af	-0.57058233
1	0xbe77b58c	-0.24190348
2	0xbe9b8ed4	-0.30382407
3	0xbf196033	-0.59912413
4	0xbe63983e	-0.22226045
5	0xbf0bae7c	-0.5456312
6	0xbf10d792	-0.56578934
7	0xbf392399	-0.7231994
8	0xbecfa7b0	-0.40557623
9	0xbf8bbdc1	-1.0917283
10	0xbf181444	-0.5940592
11	0xbf7ff69a	-0.9998566
12	0xbf3665e5	-0.7124923
13	0xbe83dfba	-0.25756627
14	0xbf2e670d	-0.68125993
15	0xbf24ef8b	-0.64428014
16	0xbf5147b1	-0.8175002
17	0xbefbc25b	-0.4917172
18	0xbf9eb315	-1.2398401
19	0xbeddd026	-0.43322867
20	0xbf6eb64b	-0.93246907
21	0xbefdd9db	-0.49580273
22	0xbf9ac716	-1.2092006
23	0xbf9e19a5	-1.2351576
24	0xbfbc0c17	-1.469119
25	0xbf2107ed	-0.6290272
26	0xbe561232	-0.20905378
27	0xbe5156f9	-0.20443334
28	0xbf3b648f	-0.73200315
29	0xbfb10805	-1.3830572
30	0xbf17057d	-0.5899275
31	0xbf4a51fb	-0.7903134

conv2.weight f4 [64, 32, 3, 3]
0	0xbd488200	-0.048952103
1	0xbe193012	-0.14959744
2	0xbe0a0fa6	-0.13482532
3	0xbdf30343	-0.118658565
4	0xbd3b6dcb	-0.045759004
5	0xbe59d52e	-0.21272728
6	0x3e0a2f07	0.13494502
7	0x3db3a8af	0.08772408
8	0x3c95bbcd	0.018278027
9	0x3c286954	0.010279018
10	0xbd991f0d	-0.074766256
11	0xbe3e81f9	-0.18604268
12	0x3d7de57f	0.061986443
13	0xbe150999	-0.14554442
14	0xbe5a352c	-0.21309346
15	0x3d9aded5	0.07562033
16	0x3cecf75c	0.028926544
17	0xbd1d168d	-0.038351584
18	0xbe210374	-0.15723974
19	0xbd355237	-0.04426786
20	0xbd872eaa	-0.06600697
21	0xbdcab7ca	-0.09898336
22	0xbda6f3e3	-0.081519864
23	0xbd4091d1	-0.04701406
24	0xbd0e09b8	-0.034677237
25	0xbde8dd0c	-0.11370286
26	0x3e1f8615	0.15578492
27	0x3d6e04cd	0.058110047
28	0xbc97e5db	-0.01854222
29	0xbe09bc33	-0.13450699
30	0xbe4f809d	-0.20263906
31	0x3dffeb92	0.12496103
32	0xbe112054	-0.14172488
33	0xbd8152ab	-0.06314596
34	0x3da64873	0.08119287
35	0x3da0d1ea	0.07852538
36	0x3c292699	0.010324144
37	0x3d500329	0.050784264
38	0xbbd906ef	-0.006623141
39	0x3d0fe973	0.035134744
40	0x3bb2d201	0.0054571633
41	0x3c146c7e	0.00905907
42	0xbc388212	-0.01126148
43	0xbd727bc3	-0.05920006
44	0x3e074baa	0.13212457
45	0xbe0aea03	-0.13565831
46	0xbdf81852	-0.12114014
47	0x3b8e7871	0.004347854
48	0xbe3d0569	-0.18459095
49	0xbde06718	-0.109571636
50	0xbe0e286e	-0.1388261
51	0xbd9c0461	-0.07618023
52	0xbd1145ad	-0.03546684
53	0xbc7cc388	-0.015427478
54	0xbd6b2f59	-0.0574182
55	0xbdbf76f5	-0.09348861
56	0xbdbd1625	-0.09232739
57	0xbd6e77d0	-0.05821973
58	0xbe26437b	-0.1623668
59	0x3c9eadbf	0.019369958
60	0x3c76a6b2	0.015054392
61	0xbcafbd10	-0.021452457
62	0xbcfda18e	-0.030960824
63	0xbeac3d13	-0.33640346
64	0xbe88c8f0	-0.26715803
65	0xbcf9d45c	-0.030496769
66	0xbe3bce03	-0.18340306
67	0xbe518e4f	-0.20464443
68	0xbe20d0e9	-0.15704693
69	0xbd98b1be	-0.07455777
70	0xbb8eb1bf	-0.004354685
71	0x3dfaf4e9	0.12253744
72	0xbaa5870c	-0.0012628748
73	0x3d77ef92	0.060531206
74	0xbc419307	-0.011814839
75	0xbdb7e6ec	-0.08979592
76	0x3d7218de	0.059105746
77	0x3d81d398	0.063391864
78	0xbd7df8fd	-0.06200503
79	0x3d28d14d	0.04121523
80	0x3e350736	0.17678532
81	0xbe0d3f9c	-0.13793796
82	0x3d3befe6	0.04588308
83	0xbeb448e0	-0.3521185
84	0xbe3173ee	-0.1732938
85	0xbd0df94f	-0.034661587
86	0xbd729abc	-0.059229597
87	0xbe2bd398	-0.16779935
88	0xbdc959e1	-0.09831596
89	0x3e6cc953	0.23123674
90	0xbdc07ff9	-0.09399409
91	0xbdf56cc9	-0.1198364
92	0xbe1f7d18	-0.15575063
93	0xbd54b948	-0.05193451
94	0xbdc6a8a2	-0.09700133
95	0xbd1aac9d	-0.037762273
96	0xbc870185	-0.016480217
97	0xbc9bbf9f	-0.01901227
98	0x3cd1c1b6	0.025605064
99	0x3d6df344	0.058093324
100	0x3e66e76e	0.22549221
101	0x3df8dafb	0.12151142
102	0xbe905f14	-0.2819754
103	0x3e24fe51	0.16112639
104	0x3d8f5ba9	0.06999905
105	0xbe5a5bbb	-0.21324055
106	0x3d1efc55	0.03881486
107	0x3e7bdc88	0.24595845
108	0xbd1387f8	-0.03601834
109	0x3dfbe826	0.12300138
110	0xbebeaa3a	-0.37239248
111	0xbe5cc1f6	-0.21558365
112	0x3e7c8831	0.24661328
113	0x3e0b3a92	0.13596562
114	0xbb89f05e	-0.004209562
115	0x3cd7621e	0.026291903
116	0x3d8387a6	0.06422357
117	0x3df7b6a6	0.12095384
118	0xbde4e2a6	-0.11176042
119	0xbd81e8a6	-0.06343202
120	0x3da3998f	0.07988273
121	0xbe0e2236	-0.13880238
122	0xbd31102d	-0.043228317
123	0x3ca0f2b0	0.019646972
124	0x3c421609	0.011846074
125	0xbd80bc42	-0.06285907
126	0xbe2ed6fc	-0.17074198
127	0x3c2ef0f3	0.010677564
128	0xbcf3fd3f	-0.029783843
129	0xbd19add7	-0.037519302
130	0xbe8f1657	-0.2794673
131	0x3d60d04d	0.05488615
132	0xbc690032	-0.014221238
133	0xbe061f5b	-0.13097899
134	0xbd4f552b	-0.050618332
135	0xbda407b2	-0.0800928
136	0x378876e3	1.6267824e-05
137	0x3db43319	0.087988086
138	0xbc4b415f	-0.012405722
139	0xbd881d18	-0.06646174
140	0x3e3192c2	0.1734114
141	0xbda19663	-0.07890012
142	0xbe2bbdd4	-0.16771632
143	0xbd95e1f1	-0.073184855
144	0xbd6f5a3f	-0.058435675
145	0xbe46aa69	-0.19400944
146	0xbe0cf6f0	-0.13766074
147	0xbd41761a	-0.04723177
148	0xbe78dbf2	-0.24302652
149	0xbc1e7507	-0.009671456
150	0x3c8795d9	0.016550945
151	0x3dd7184d	0.10502682
152	0xbd4f35c7	-0.050588395
153	0x3e4cb0e2	0.1998935
154	0xbd23dba6	-0.040004395
155	0x3df4efda	0.119598106
156	0xbc7f263e	-0.0155730825
157	0xbd511eb1	-0.05105466
158	0xbda26fe5	-0.079314984
159	0x3ced557a	0.028971422
160	0x3e442231	0.19153668
161	0xbe1322da	-0.14368764
162	0xbd808075	-0.06274501
163	0xbe24f701	-0.1610985
164	0xbda4b6c0	-0.08042669
165	0xbd2c17f6	-0.04201504
166	0xbe08ed37	-0.1337174
167	0xbd51ab93	-0.051189017
168	0x3c15e34b	0.009148429
169	0xbc0502d4	-0.00811835
170	0xbdd459f1	-0.103687175
171	0x3d2a7b1d	0.041621316
172	0x3d5c673f	0.0538094
173	0xbce5e8f6	-0.028065186
174	0xbde2c283	-0.110722564
175	0x3e42f969	0.19040455
176	0xbd272015	-0.04080208
177	0xbdf48d21	-0.11940981
178	0xbc151fb4	-0.009101797
179	0x3d887a01	0.066638954
180	0xbe5f52b5	-0.21808894
181	0x3d7f9c25	0.06240477
182	0xbcdec277	-0.027192337
183	0xbdd42807	-0.10359197
184	0xbe58cbf9	-0.2117156
185	0x3debc1b2	0.11511554
186	0xbdaab0f5	-0.08334533
187	0xbdb71f3a	-0.08941503
188	0x3d6b151c	0.05739318
189	0xbd8f4126	-0.06994848
190	0x3b169653	0.0022977784
191	0x3e0c569d	0.13704915
192	0x3c40b0a8	0.011760868
193	0xbd358dec	-0.0443248
194	0x3d1a1259	0.037615154
195	0x3bb78e5a	0.0056016864
196	0xbbced69a	-0.0063122036
197	0xbcf1d33e	-0.029519673
198	0xbe94fa9f	-0.2909746
199	0xbe601d51	-0.21886183
200	0x3da708c1	0.081559666
201	0xbe0c5234	-0.13703233
202	0xbe0b539c	-0.13606113
203	0xbe17c4c1	-0.1482115
204	0xbd05cbaf	-0.03266495
205	0x3c9b85c6	0.018984687
206	0x3e0245ac	0.1272189
207	0xbe229be3	-0.15879779
208	0xbcd52585	-0.026018867
209	0x3cc85cca	0.024458308
210	0xbd2be113	-0.041962694
211	0xbe39dc92	-0.18150547
212	0xbe82bcf4	-0.25534785
213	0xbd94bb59	-0.07262296
214	0x3e7e798a	0.24851051
215	0x3c3e9994	0.011633296
216	0xbdf0369e	-0.117291674
217	0xbe1915cf	-0.14949726
218	0xbdd922c1	-0.10602332
219	0xbc226630	-0.009912059
220	0xbcfb9d0b	-0.030714532
221	0x3d888c1b	0.06667348
222	0xbd4a13bb	-0.049335223
223	0xbd5d4b22	-0.05402673
224	0xbe5c9200	-0.2154007
225	0x3e37030c	0.17872256
226	0x3d32d5f2	0.043661065
227	0x3e166741	0.14687826
228	0xbe09c59c	-0.13454288
229	0xbd04f5fa	-0.032461144
230	0x3dc0cf30	0.09414518
231	0xbc37aa83	-0.011210087
232	0x3e18b0af	0.1491115
233	0xbd2e46ea	-0.042548098
234	0x3d29dfc0	0.04147315
235	0xbe106448	-0.14100754
236	0xbe0ebdfe	-0.13939664
237	0xbc6670b7	-0.014064959
238	0xbdcf16fb	-0.10111805
239	0xbe343641	-0.17598821
240	0xbd94e221	-0.07269693
241	0xbd145a01	-0.036218647
242	0x3c38d48e	0.011281146
243	0xbc856a48	-0.01628603
244	0xbdbcff17	-0.09228342
245	0x3c626342	0.01381761
246	0xbd65a541	-0.0560658
247	0xbd21c125	-0.039490838
248	0xbd3b9620	-0.045797467
249	0xbce4fc5c	-0.027952366
250	0x3ccfa7b4	0.025348522
251	0xbc9056c2	-0.017619494
252	0xbda08c93	-0.078393124
253	0x3d20c4b3	0.039250087
254	0x3deac792	0.11463846
255	0xbc3af647	-0.011411256

conv2.bias f4 [64]
0	0xbe32db71	-0.17466523
1	0xbe0405ad	-0.1289279
2	0xbda76dd5	-0.08175246
3	0xbdd37e39	-0.103268094
4	0xbe036a41	-0.12833501
5	0xbf05ba76	-0.5223764
6	0xbeaf8659	-0.34282187
7	0xbf1d3d84	-0.6142199
8	0xbe7b3451	-0.24531676
9	0xbceb6f4d	-0.028739596
10	0xbdc2a012	-0.09503187
11	0xbc4efc38	-0.012633376
12	0xbeb0d0f8	-0.3453443
13	0xbd9820b1	-0.074281104
14	0xbdd17e77	-0.102291994
15	0xbdf72e80	-0.12069416
16	0x3d66f211	0.056383196
17	0xbd08d909	-0.033410106
18	0xbf10fbc6	-0.56634176
19	0xbe555a10	-0.20835137
20	0xbe3ca65d	-0.18422838
21	0xba205ed7	-0.0006117648
22	0xbe3b43f3	-0.1828764
23	0xbe1cd9d2	-0.15317467
24	0xbec2a329	-0.38015106
25	0xbd718041	-0.058960203
26	0xbe79853d	-0.24367233
27	0xbe263298	-0.16230237
28	0xbddec963	-0.10878255
29	0xbe04ea53	-0.12980013
30	0xbe851c18	-0.25997996
31	0xbe3eea86	-0.18644151
32	0xbdbce6c0	-0.092236996
33	0xbde1ddfd	-0.11028669
34	0xbe6e9487	-0.23298846
35	0xbdecfae3	-0.1157129
36	0xbed926e6	-0.4241249
37	0xbe810b73	-0.25204048
38	0xbe29be9e	-0.16576621
39	0xbeda6254	-0.42653143
40	0xbe338d8d	-0.17534466
41	0xbe003f8e	-0.12524244
42	0xbed16ef6	-0.4090497
43	0xbe0809bb	-0.13284962
44	0xbec15827	-0.37762567
45	0xbec4802d	-0.3837904
46	0xbe280ee3	-0.16411929
47	0xbdb4561d	-0.08805487
48	0x3c930d07	0.017950548
49	0xbe548f1d	-0.20757718
50	0xbdc95f43	-0.09832623
51	0xbd9b4665	-0.07581786
52	0xbda96e6c	-0.082730144
53	0xbd493ee7	-0.049132254
54	0xbce75e5b	-0.028243234
55	0xbe4e7438	-0.20161521
56	0xbdd11fc0	-0.10211134
57	0xbdfc0de9	-0.12307341
58	0xbe77728c	-0.2416479
59	0xbd72ed23	-0.059308182
60	0xbecc4761	-0.39898208
61	0xbda7ed66	-0.08199577
62	0xbe42c7d0	-0.19021535
63	0xbe9363d2	-0.28787094

fc1.weight f4 [10, 3136]
0	0xbc70fa65	-0.014708136
1	0xbc55353c	-0.01301318
2	0xbc511b5a	-0.012762869
3	0xbb325f10	-0.0027217306
4	0x3b6b5983	0.0035911507
5	0xbc7d299a	-0.015451813
6	0xbc6a4829	-0.014299431
7	0xbcf98b83	-0.030462032
8	0xbd75f8e4	-0.060051814
9	0x3c1cff7a	0.009582395
10	0x3d42ec6c	0.04758875
11	0x3bc528c3	0.006016822
12	0x3d361d3d	0.044461478
13	0xbcdf080f	-0.027225522
14	0xbc36096a	-0.011110643
15	0xbe0f66c1	-0.14004041
16	0xbe494d2e	-0.19658348
17	0xbd09a030	-0.033600032
18	0x3e7a0b9d	0.24418493
19	0x3d87f964	0.06639364
20	0xbce1db10	-0.027570277
21	0xbcc1dac9	-0.023663895
22	0x3da0acdd	0.07845471
23	0xbc4d8537	-0.012543968
24	0x3cca558a	0.024698991
25	0x3e8fe755	0.2810618
26	0x3e1c070d	0.15237065
27	0xbc741e05	-0.014899735
28	0x3dc9320b	0.09823998
29	0x3e306bf8	0.17228687
30	0x3db34b95	0.087546505
31	0xbd9b1001	-0.07571412
32	0x3e3b3a0a	0.18283859
33	0x3c1971fa	0.009365553
34	0x3c22d3ef	0.009938224
35	0xbc9e20a5	-0.019302676
36	0x3e147ebd	0.14501472
37	0x3e958889	0.2920573
38	0xbd7f14ac	-0.062275574
39	0xbd811d82	-0.06304456
40	0xbd47cc50	-0.048778832
41	0xbbc501a5	-0.006012159
42	0xbc8c608e	-0.017135885
43	0xbd259153	-0.040421795
44	0x3e3804dd	0.17970605
45	0xbe0820d1	-0.13293768
46	0xbdeb0554	-0.11475626
47	0xbcb8a967	-0.022541715
48	0xbbb66019	-0.005565655
49	0xbc027151	-0.007961587
50	0x3c30b43b	0.010785158
51	0xbd201db1	-0.039090816
52	0x3c94232d	0.01808318
53	0x3deca07e	0.11554049
54	0xbd1173ad	-0.035510708
55	0x3bd0d6f2	0.0063732797
56	0xbd2a4f9b	-0.041579824
57	0xbd60b10c	-0.054856345
58	0xbc1fda09	-0.0097565735
59	0x3d69ada5	0.057050366
60	0x3cfd8921	0.030949177
61	0x3c402a24	0.011728797
62	0x3c3260dd	0.010887352
63	0x3d4e2002	0.050323494
64	0xbd04df47	-0.032439496
65	0x3d986838	0.07441753
66	0xbc13a71b	-0.009012009
67	0x3d239636	0.039938174
68	0xbcee18ba	-0.029064525
69	0x3b5d71e9	0.003378982
70	0x3d158aa8	0.036509186
71	0xbc20f288	-0.009823449
72	0xbcffe072	-0.031234954
73	0xbcbe2eab	-0.023215612
74	0xbce39caa	-0.027784664
75	0xbd0c00b4	-0.034180358
76	0xbb3155d0	-0.0027059205
77	0x3d0f3ea0	0.034971833
78	0xbd61c26c	-0.055117056
79	0xbd0afcf5	-0.033932645
80	0x3ce9e6ca	0.028552432
81	0xbbdde989	-0.0067722243
82	0xbc3ad76f	-0.011403902
83	0xbc52afe2	-0.012859317
84	0xbcb1a1c5	-0.021683583
85	0xbd5cc965	-0.053903002
86	0xbdb74cca	-0.08950193
87	0xbd750399	-0.059817884
88	0xbb28896d	-0.0025716678
89	0xbcc1249f	-0.023577033
90	0xbc2602e3	-0.010132524
91	0x3c0ced54	0.008601505
92	0xbd9aa1bd	-0.075503804
93	0xbd8040a6	-0.06262331
94	0xbdc760b6	-0.09735243
95	0xbcef8798	-0.02923946
96	0xbb988d59	-0.004655522
97	0xbb1c7a8f	-0.0023876762
98	0x3c008b03	0.007845643
99	0x3c68d43c	0.014210757
100	0x3acbe20e	0.001555504
101	0x3ba89aa2	0.005145387
102	0xbbffb3f7	-0.007803436
103	0x3c8e5f01	0.017379286
104	0xbb378331	-0.002800178
105	0xbc06fbf6	-0.008238783
106	0xbd4d61db	-0.05014215
107	0x3da19d56	0.078913376
108	0xbdd321d7	-0.10309189
109	0xbd649c6f	-0.05581325
110	0x3a0c489e	0.0005351397
111	0xbca592b3	-0.020211553
112	0x3c403ee1	0.0117337415
113	0xbd768899	-0.060188863
114	0xbe0818a9	-0.13290657
115	0xbe3b8733	-0.18313293
116	0x3e0b1238	0.13581169
117	0x3c0b16ea	0.00848935
118	0xbc0fa506	-0.008767372
119	0xbc466dbf	-0.012111126
120	0x3d58e532	0.052952953
121	0xbe9e384b	-0.30902323
122	0xbeba9eaa	-0.36449176
123	0xbdcdbfe3	-0.10046365
124	0xbdbbb9ae	-0.09166275
125	0x3c678193	0.014130014
126	0xbbd6b9db	-0.0065529174
127	0x3db64543	0.088999294
128	0x3d970a1b	0.07374974
129	0xbdc1dd71	-0.09466065
130	0xbd9e489f	-0.07728695
131	0xbbcc2047	-0.0062294337
132	0xbcd94ed4	-0.026526846
133	0xbbd90c29	-0.006623764
134	0x3e0b88b6	0.1362637
135	0x3e402e45	0.1876765
136	0x3dd33a9f	0.103139155
137	0xbdc2563e	-0.09489106
138	0xbd8a532f	-0.06754147
139	0xbd3894c6	-0.045063756
140	0x3c27c000	0.010238647
141	0x39ad4fb6	0.0003305652
142	0xbba22531	-0.004948281
143	0xbd847590	-0.06467736
144	0xbd1ea1c5	-0.038728494
145	0xbb3e0fa0	-0.0029001012
146	0x3ab79b5d	0.0014008094
147	0x3c167f4b	0.009185622
148	0xbc77f909	-0.015135058
149	0xbc8d534c	-0.017251633
150	0x3d04f42f	0.032459434
151	0xbaab0c7c	-0.0013049985
152	0xbbee89e9	-0.0072796238
153	0x3c2c1a6c	0.010504346
154	0x3a04c7dd	0.00050651823
155	0xbc946cb9	-0.01811825
156	0x3c3c5825	0.011495625
157	0xbd914890	-0.07093918
158	0xbdb854ab	-0.09000524
159	0xbe5d1cec	-0.21593064
160	0xbab05d95	-0.0013455624
161	0x3c9e1652	0.019297753
162	0x3c3166e2	0.010827752
163	0xbd84f54d	-0.064921
164	0xbd0361a2	-0.03207553
165	0x3d928cf6	0.071557924
166	0xbea5482e	-0.3228163
167	0xbdb3c840	-0.08778429
168	0x3c92712e	0.017876234
169	0xbce02463	-0.0273611
170	0xbd93245f	-0.071846716
171	0x3d47e0e7	0.048798468
172	0x3d923bab	0.07140287
173	0xbe000a70	-0.12503982
174	0x3cb4952e	0.02204379
175	0x3c7cf932	0.015440272
176	0xbd10e1bb	-0.035371523
177	0xbdfddc35	-0.12395517
178	0x3cf5071b	0.029910615
179	0x3e65d63d	0.22445007
180	0x3e2946b2	0.16530874
181	0x3df7d6e8	0.12101537
182	0x3b7b1011	0.0038309137
183	0xbd267b90	-0.040645182
184	0xbe00492d	-0.12527914
185	0x3e646219	0.22303046
186	0x3e2d262a	0.1690909
187	0x3d9c3aa9	0.07628376
188	0xbdd7d8cc	-0.105393976
189	0x3b90818c	0.0044099744
190	0x3cb3ba69	0.021939473
191	0xbd90ed90	-0.070765615
192	0xbe376bde	-0.17912242
193	0xbe269288	-0.16266835
194	0xbd95fe7b	-0.07323929
195	0xbbbe5f63	-0.005809711
196	0xbbd3a822	-0.006459252
197	0xbc84c9fa	-0.016209591
198	0xbbf3730a	-0.007429485
199	0x3b24b816	0.0025134138
200	0xbc6613a2	-0.014042767
201	0xbbf69cec	-0.0075260308
202	0xbb77a988	-0.0037790257
203	0x3b86062d	0.0040900917
204	0xbc8d8198	-0.01727371
205	0xbdce6d20	-0.10079408
206	0xbda1558d	-0.07877646
207	0x3dd5fd85	0.10448746
208	0x3dd5ac00	0.10433197
209	0xbc51a351	-0.012795285
210	0x3c90faa8	0.017697647
211	0xbce73ace	-0.028226282
212	0xbe9eb58c	-0.30997884
213	0x3e253c26	0.16136226
214	0x3dc5a82d	0.096512176
215	0x3da54a62	0.08070828
216	0xbbfdf931	-0.007750653
217	0xbc32b18d	-0.010906589
218	0x3d98a05d	0.07452462
219	0xbe80725b	-0.25087246
220	0xbbdcb41f	-0.0067353393
221	0xbcbdf257	-0.023186846
222	0x3e8f58dc	0.27997482
223	0xbc5587c5	-0.013032858
224	0xbcc17d5a	-0.023619343
225	0x3d1cb86c	0.038261816
226	0x3dd40f0c	0.103544325
227	0x3e53548d	0.20637722
228	0xbe936bbf	-0.2879314
229	0x3d6f181f	0.058372613
230	0x3bc2e5b1	0.0059477915
231	0xbcc34d22	-0.02384049
232	0xbd48eda0	-0.04905474
233	0x3ddb7d3e	0.107172474
234	0x3ecbee58	0.3983028
235	0xbdee27ab	-0.1162866
236	0xbdfe4e80	-0.124173164
237	0xbc7a6b97	-0.0152844405
238	0x3c733dcb	0.014846276
239	0xbd413d89	-0.047177825
240	0x3dc26c4f	0.094933145
241	0x3d6e801a	0.058227636
242	0xbca82f3d	-0.020530337
243	0xbd7c19dc	-0.0615481
244	0xbbd6a758	-0.0065507106
245	0x3a96ff24	0.001152013
246	0xbda8dd18	-0.08245295
247	0xbdb3891d	-0.08766387
248	0x3e112365	0.14173658
249	0xbda9d776	-0.08293049
250	0xbc080ccf	-0.008303835
251	0x3c594392	0.013260739
252	0x3b8c3d8b	0.0042797974
253	0x3d63e3c4	0.055637136
254	0x3e00275d	0.12515016
255	0x3db4d73a	0.08830114

fc1.bias f4 [10]
0	0x3d3cfdfb	0.046140652
1	0x3ef805fd	0.4844207
2	0x3c15a262	0.009132953
3	0xbdf507a3	-0.11964347
4	0x3d65d72e	0.056113414
5	0xbd24ed7c	-0.040265545
6	0xbe26d0fc	-0.16290659
7	0x3e3e827c	0.18604463
8	0xbe2cec8c	-0.1688711
9	0xbe97a78d	-0.2962002

momentum_buffer f4 [32, 1, 3, 3]
0	0x3abebd23	0.0014552217
1	0xba83ab1e	-0.0010045504
2	0xbb2efd2e	-0.00267012
3	0xbab060fe	-0.001345664
4	0xbae08b9c	-0.0017131451
5	0x3b035899	0.0020041822
6	0xba9e46c2	-0.0012075531
7	0x3b24ee31	0.0025166387
8	0x3bcd800f	0.0062713693
9	0xbb3d924f	-0.0028926318
10	0xbb11004c	-0.002212542
11	0xbb19809b	-0.0023422602
12	0xbb34986a	-0.0027556666
13	0xbb13df11	-0.0022563378
14	0xbac71ab8	-0.0015190458
15	0xba88f604	-0.0010449295
16	0x3b0232af	0.0019866636
17	0x3c041e9d	0.008063939
18	0xbb29ccb0	-0.0025909357
19	0xbb8c24e6	-0.0042768596
20	0xbb5a6293	-0.0033322915
21	0xbb35233a	-0.0027639405
22	0xbb0f4163	-0.0021859042
23	0xbb0d801a	-0.0021591247
24	0xbac907fe	-0.0015337465
25	0x399520c6	0.00028443913
26	0x3ac57bfb	0.0015066856
27	0xbb39b32b	-0.0028335552
28	0xbb2f9d45	-0.002679662
29	0xbaf8f332	-0.0018993376
30	0xbb0b86c8	-0.0021290053
31	0xbb00dd4c	-0.0019663153
32	0xbabc194b	-0.00143508
33	0xbae94cb8	-0.0017799353
34	0xbae952f2	-0.0017801209
35	0xbafa7100	-0.0019107163
36	0x3a57f6c4	0.000823837
37	0x39bf2223	0.00036455793
38	0x34b8ffd5	3.4458813e-07
39	0xb9adf421	-0.00033179022
40	0xb828cb11	-4.024344e-05
41	0xb9ef55a4	-0.0004564944
42	0xbad0d372	-0.0015932156
43	0xb9412af7	-0.0001842192
44	0xba92182c	-0.001114612
45	0xbb915a97	-0.004435848
46	0xba691711	-0.0008891682
47	0x39ea9f07	0.00044750443
48	0xbafddb0e	-0.0019367652
49	0x3b0c5c0c	0.002141717
50	0x3adbbf93	0.0016765468
51	0xb9ed0453	-0.00045207384
52	0x3a48e3d5	0.0007663344
53	0xb9f1606b	-0.0004603894
54	0xba15fdbc	-0.00057217083
55	0xb9da64a0	-0.00041655172
56	0xba985ccc	-0.0011624335
57	0xbb84ccf0	-0.0040527508
58	0xbb944aeb	-0.0045255325
59	0xbb893199	-0.0041868207
60	0xbb337e25	-0.002738842
61	0xba999fa6	-0.0011720553
62	0xbaa73e65	-0.0012759684
63	0xbba723aa	-0.005100687
64	0xbbb65ba4	-0.0055651236
65	0xba3afe1c	-0.0007133202
66	0xbbc4f98f	-0.006011195
67	0xbaae2013	-0.0013284705
68	0x3a6a849b	0.00089461514
69	0xbb2709f0	-0.00254881
70	0xb7c2499b	-2.3160877e-05
71	0xba15fa7e	-0.0005721225
72	0xba29b67f	-0.00064740324
73	0xb8c82147	-9.5429416e-05
74	0xbad9ef8b	-0.0016627176
75	0x3aeb16ce	0.0017935873
76	0x3a44d010	0.00075078104
77	0xbb53f679	-0.0032342954
78	0x3a017f16	0.0004939897
79	0xbb0ed51e	-0.0021794508
80	0xbb81d7a6	-0.003962475
81	0xba9a330f	-0.0011764484
82	0xbb11a7e2	-0.002222531
83	0xbb5069b5	-0.0031801288
84	0x3bb3f936	0.0054923547
85	0x3c17985d	0.009252635
86	0x3c34e12c	0.011040013
87	0x3c5e0001	0.013549806
88	0x3c937858	0.01800172
89	0x3c7eb77e	0.015546678
90	0x3b6f4fd1	0.003651608
91	0x3b62274b	0.0034508284
92	0xb709aefc	-8.206578e-06
93	0x39bfcb07	0.00036581626
94	0xba6144cc	-0.00085933204
95	0xba8789ec	-0.0010340787
96	0xbac1abb6	-0.0014775905
97	0xba6651dc	-0.00087860017
98	0x3a46e6e9	0.0007587509
99	0x3a1651ac	0.0005734216
100	0xba988af7	-0.0011638094
101	0xbb755104	-0.0037432322
102	0x3a162fa1	0.0005729143
103	0x3a14bb08	0.0005673622
104	0xba64a4fd	-0.0008722095
105	0x3a149c4e	0.0005669043
106	0x3a862997	0.0010235783
107	0x3b0af0e9	0.0021200723
108	0x3c350b91	0.011050121
109	0x3badb57e	0.0053011766
110	0x3b4cc7de	0.003124706
111	0x3bcfffb8	0.0063476227
112	0x3b334bde	0.0027358453
113	0x3b6d87e4	0.0036244327
114	0xbaade7c1	-0.0013267921
115	0xbb0ff5d1	-0.0021966586
116	0xba93329e	-0.0011230295
117	0xba9920c8	-0.0011682743
118	0xbac76081	-0.0015211256
119	0xbaab0318	-0.0013047187
120	0xbad984ad	-0.0016595327
121	0xbad55d75	-0.0016278463
122	0xbad72bab	-0.0016416212
123	0xbabcdcac	-0.0014409027
124	0xbab80b4f	-0.0014041456
125	0xbab0c6b1	-0.0013486949
126	0x398a2b10	0.00026353495
127	0x39c250b2	0.00037062686
128	0x39d48cdf	0.00040540748
129	0x3a3b2058	0.00071383035
130	0x3795a245	1.7837747e-05
131	0x3a8c1cda	0.0010689751
132	0x3a064a6c	0.0005122784
133	0x3acc267a	0.0015575432
134	0x39c80370	0.00038149534
135	0xbb0864e1	-0.0020812082
136	0xbb81b2b5	-0.003958071
137	0xba6fc83d	-0.00091469643
138	0xbbb73adf	-0.005591735
139	0xbb9091aa	-0.0044118958
140	0xb9358651	-0.00017311542
141	0xbb418f34	-0.0029534819
142	0xbbc570db	-0.0060254163
143	0xbb568d48	-0.0032738019
144	0xb97ac7cd	-0.0002391629
145	0x3a271627	0.00063738454
146	0xba43cbe7	-0.00074690435
147	0xbb0f95c4	-0.0021909336
148	0xbbb00999	-0.005372238
149	0xbbeaea30	-0.0071690306
150	0xbc1c0256	-0.009522041
151	0xbbeaa968	-0.007161308
152	0xbc0b8c10	-0.00851728
153	0x3a645389	0.00087099575
154	0xba120d52	-0.0005571443
155	0xbb600ce7	-0.0034187378
156	0xb8bb9fcf	-8.9466215e-05
157	0xbb512f41	-0.0031919035
158	0xbadf8e46	-0.0017055951
159	0xbbce7d98	-0.006301593
160	0xbc013ce8	-0.007888056
161	0xba3614eb	-0.0006945866
162	0x3b3d96f6	0.002892909
163	0x3ac48a17	0.0014994767
164	0xb8d3ed77	-0.00010105495
165	0x3a6e9fee	0.0009102811
166	0x3a231fdf	0.00062227057
167	0xbb196220	-0.0023404434
168	0xbc0b7a38	-0.008513026
169	0xbc3d2c24	-0.0115461685
170	0xbc19dc5d	-0.009390918
171	0x3965cf99	0.00021916478
172	0x39e00501	0.00042728338
173	0x3a675f58	0.0008826158
174	0xb98c61d0	-0.00026775757
175	0xb9924ff8	-0.0002790687
176	0x39b506ab	0.00034527978
177	0xb8e466e5	-0.00010891053
178	0xb986e06f	-0.00025725688
179	0x39832e4a	0.00025020755
180	0xbbe5e479	-0.0070157615
181	0xbc3f1682	-0.011663081
182	0xbc28a2b6	-0.0102927
183	0xbb98d3ce	-0.004663921
184	0xbc1d3bf3	-0.009596813
185	0xbc05b0a4	-0.00815979
186	0xb8978705	-7.2253904e-05
187	0xba5d062b	-0.00084314
188	0xbaf1702c	-0.0018420271
189	0xbb6bccd7	-0.0035980248
190	0x392ed3c4	0.00016672822
191	0x3a0a55d1	0.000527707
192	0xbaee631c	-0.0018187496
193	0xba295f61	-0.0006461051
194	0xb9b0027f	-0.00033571196
195	0x39d0379b	0.0003971428
196	0x3a2a41f3	0.00064948126
197	0x3a2fa191	0.00066997955
198	0xbb9ef3e2	-0.0048508504
199	0xbbe156cb	-0.0068768016
200	0xbbb1389b	-0.005408359
201	0xbbf3071e	-0.00741662
202	0xbbb05789	-0.0053815288
203	0xbb00692f	-0.0019593944
204	0xbb4a15c5	-0.003083573
205	0xb91d60ef	-0.00015008797
206	0x39159caf	0.00014268117
207	0x39fef5d3	0.0004862981
208	0x3ace1291	0.0015722086
209	0x3b1a7ce2	0.002357297
210	0x3a66a84c	0.0008798882
211	0x3b956c30	0.004560016
212	0x3a61541d	0.00085956027
213	0x3b97f437	0.004637267
214	0x3bb1aa5b	0.0054219193
215	0xba7a64e7	-0.0009551779
216	0xba85f5d7	-0.0010220361
217	0xba61bacb	-0.0008610903
218	0xb9a77d56	-0.00031946105
219	0xbb546e33	-0.0032414317
220	0xbaa114e2	-0.0012289549
221	0x3951fd8c	0.00020026247
222	0xbb7ae6dc	-0.0038284576
223	0xbb418c8c	-0.0029533235
224	0xbb0ff889	-0.0021968207
225	0x3a8e7f42	0.0010871666
226	0x3a680b14	0.00088517484
227	0x3a937bfc	0.001125216
228	0xbb53d970	-0.0032325648
229	0xba0ae547	-0.0005298447
230	0x3a7f2a98	0.0009733825
231	0xbc03e7ac	-0.00805084
232	0xbb878610	-0.0041358545
233	0x39854a7f	0.0002542324
234	0x3bf59b57	0.0074953246
235	0x3bc46989	0.005994026
236	0xba56ea49	-0.00081983634
237	0x3af52edb	0.0018705981
238	0x3b08052e	0.002075504
239	0xbae93bd2	-0.0017794317
240	0xbb50594a	-0.0031791502
241	0xbb44d81f	-0.0030036045
242	0xbb5dc5aa	-0.003383974
243	0x3a248486	0.0006275851
244	0x3910d93c	0.00013813836
245	0xb9ee1a11	-0.00045414318
246	0xbb716747	-0.003683524
247	0xbb8b45db	-0.004250271
248	0xbaa61b27	-0.0012672887
249	0xbbb8712d	-0.005628726
250	0xbbc13be5	-0.0058970326
251	0xbaedd1b2	-0.0018144159
252	0xbb52e77e	-0.0032181437
253	0xbb0f464e	-0.0021861973
254	0xb94d8393	-0.00019599339
255	0xbb8d156e	-0.004305533

momentum_buffer f4 [32]
0	0x3b9505cd	0.0045478106
1	0x3bb1a0e7	0.0054207924
2	0x3b9eea6c	0.0048497226
3	0x3b8a1d6e	0.004214934
4	0xbad38e60	-0.0016140454
5	0xbb3a3a5f	-0.002841614
6	0xbac27547	-0.0014835977
7	0xba4bd08b	-0.0007774911
8	0xbab55a2b	-0.0013836076
9	0x3b9a4bbc	0.0047087353
10	0x3b7fc9cd	0.0039030195
11	0xbab10aed	-0.0013507284
12	0x3bd3325e	0.006445213
13	0x3b7b7cc7	0.0038373934
14	0x392a18b7	0.0001622167
15	0xbb9491cf	-0.0045339833
16	0xbb4fe3fe	-0.0031721587
17	0xbb57630b	-0.003286543
18	0xbb29340c	-0.0025818376
19	0x3a3283ca	0.0006809799
20	0xbb9c118d	-0.0047628344
21	0xbb03c818	-0.002010828
22	0xbafe1c5a	-0.0019387112
23	0x3ac271ba	0.0014834919
24	0xba9f56d0	-0.001215661
25	0xbb41696b	-0.0029512297
26	0x3be456c9	0.0069683534
27	0xb9bb7abd	-0.00035758867
28	0xbaea7404	-0.0017887359
29	0xbbbc4471	-0.0057454635
30	0xbb47b78e	-0.0030474397
31	0x3ba78422	0.005112187

momentum_buffer f4 [64, 32, 3, 3]
0	0x310725ef	1.9666648e-09
1	0x3660f9b6	3.3523952e-06
2	0xb66f94c0	-3.570036e-06
3	0xb4fff407	-4.7675005e-07
4	0xb4c31657	-3.6337835e-07
5	0xb6a62f32	-4.95268e-06
6	0x3880d578	6.143277e-05
7	0x3863cd3a	5.431215e-05
8	0x360ab697	2.0669884e-06
9	0x37e7b0fd	2.7619762e-05
10	0x37f0e914	2.8718765e-05
11	0x374581a4	1.1772299e-05
12	0x37e6a640	2.7495553e-05
13	0x373f5cb2	1.14060695e-05
14	0x374d93ed	1.2253394e-05
15	0x38325aad	4.2522955e-05
16	0x37d518b1	2.5403077e-05
17	0x37cdaa27	2.4517138e-05
18	0x3779c0ca	1.4886444e-05
19	0x371c4d93	9.316386e-06
20	0x3728a537	1.0052047e-05
21	0x37261d52	9.901198e-06
22	0x35c722f9	1.4836834e-06
23	0x37d2950d	2.5103358e-05
24	0x379163f1	1.7331886e-05
25	0x3715014b	8.881393e-06
26	0x37c1c385	2.3098439e-05
27	0x372aa06e	1.0170143e-05
28	0x36f6204f	7.3351325e-06
29	0x36f9aa40	7.440598e-06
30	0x37375455	1.0927285e-05
31	0x37e927f5	2.779437e-05
32	0x37f25ed1	2.88928e-05
33	0x373554e1	1.0808203e-05
34	0x382410bf	3.9116243e-05
35	0x37315756	1.0570357e-05
36	0xb39c32ab	-7.2735325e-08
37	0x36867a51	4.0077507e-06
38	0xb691a1d8	-4.340178e-06
39	0x3096b49e	1.0965271e-09
40	0xb3884709	-6.345915e-08
41	0xb5c09718	-1.4349089e-06
42	0xb1250cc1	-2.401791e-09
43	0x35e88bfc	1.7326088e-06
44	0x3810c53c	3.4515964e-05
45	0xb2781255	-1.4439668e-08
46	0xb57a2fc6	-9.3201777e-07
47	0xb6b0bcdc	-5.267195e-06
48	0xb171f766	-3.5210745e-09
49	0x95349f1b	-3.6476223e-26
50	0x37931da7	1.7537574e-05
51	0x33e404da	1.061796e-07
52	0xafe4e864	-4.1638082e-10
53	0x34032217	1.2212728e-07
54	0xb53306ce	-6.66926e-07
55	0x2ed5dc9b	9.725306e-11
56	0x38b64f0e	8.693161e-05
57	0x31355d58	2.6392026e-09
58	0x30e3f25b	1.6585305e-09
59	0xb6c981d6	-6.0053817e-06
60	0xb3109464	-3.3662573e-08
61	0xb674fdfa	-3.6506667e-06
62	0x35d8236e	1.6103565e-06
63	0xb1f0d67c	-7.0093034e-09
64	0xb59d0dce	-1.1701429e-06
65	0xb7220ed2	-9.659403e-06
66	0xaa8511a2	-2.363778e-13
67	0x36b284da	5.3202793e-06
68	0x3851aac0	4.9988506e-05
69	0xb0a21a03	-1.1794444e-09
70	0xb29805f7	-1.7697841e-08
71	0x36fdaf90	7.5604257e-06
72	0xb56d0a1d	-8.8304097e-07
73	0x378afdd6	1.6569084e-05
74	0xb162eb4e	-3.3021084e-09
75	0xb35a1e4e	-5.0784642e-08
76	0x37b8efe2	2.2046213e-05
77	0x379c8a78	1.8661129e-05
78	0xb0b00226	-1.2806296e-09
79	0x375887ff	1.2906267e-05
80	0x36390dd3	2.7575195e-06
81	0xb476fb89	-2.3002043e-07
82	0x38c1ab8b	9.2349095e-05
83	0x38185c5c	3.632564e-05
84	0xb316ee84	-3.5141525e-08
85	0x38af0f1e	8.347466e-05
86	0x37d5465d	2.5424344e-05
87	0x37184732	9.0764825e-06
88	0x38271903	3.9839197e-05
89	0x382a65d7	4.0626004e-05
90	0x37246c17	9.800328e-06
91	0x3645f942	2.9500375e-06
92	0x3682aa9e	3.8941644e-06
93	0x3724ffc6	9.834714e-06
94	0x369b6276	4.6308223e-06
95	0xb6d2eaf7	-6.285841e-06
96	0x37496a68	1.2005308e-05
97	0x37142cdf	8.831935e-06
98	0x38095ae4	3.2747994e-05
99	0xb6193e79	-2.283514e-06
100	0x3833fd6c	4.2912943e-05
101	0x31506059	3.032275e-09
102	0xb397966c	-7.058847e-08
103	0x3841c384	4.6196874e-05
104	0xb2b71655	-2.131416e-08
105	0x29a3ac92	7.26859e-14
106	0x37b92b0b	2.2073762e-05
107	0x33db38e6	1.0208332e-07
108	0x365fba1a	3.3337915e-06
109	0xb63f92c4	-2.8546647e-06
110	0x36862786	3.9981123e-06
111	0xb200ef7f	-7.505036e-09
112	0x37a2188a	1.9323332e-05
113	0x3859b549	5.1905667e-05
114	0xb0bb7f9f	-1.3642313e-09
115	0x38042003	3.1501066e-05
116	0x3855ec98	5.1003502e-05
117	0x380a2980	3.2940414e-05
118	0x3772bc39	1.4468148e-05
119	0x376c6739	1.409073e-05
120	0x380a3504	3.295114e-05
121	0x3765ca9d	1.3696638e-05
122	0x37778f7a	1.4755753e-05
123	0x38270a34	3.9825405e-05
124	0x37f8e7e0	2.9671879e-05
125	0x37f7c93d	2.9538403e-05
126	0x30c51c21	1.4341631e-09
127	0x385c0e7b	5.2465573e-05
128	0x3884d249	6.333419e-05
129	0xa23ece73	-2.5859095e-18
130	0xb352b02f	-4.9054673e-08
131	0x37eb4c68	2.8049762e-05
132	0xb337e7ec	-4.281894e-08
133	0xb21bc81e	-9.067689e-09
134	0x37e77f09	2.7596501e-05
135	0xa15d7f8e	-7.504653e-19
136	0x36b6ede0	5.451715e-06
137	0x37fc9c86	3.0113628e-05
138	0xa0bbbcb1	-3.1803898e-19
139	0xb2a15dbc	-1.8785492e-08
140	0x379f5528	1.8993931e-05
141	0x3643ac24	2.9157463e-06
142	0x353d1450	7.0437545e-07
143	0x3788fef2	1.6331182e-05
144	0xae886450	-6.202383e-11
145	0x38030fde	3.124761e-05
146	0x384824e1	4.7718062e-05
147	0x28a244ab	1.8015393e-14
148	0xb21237b2	-8.510982e-09
149	0xb59c43ef	-1.1642677e-06
150	0x349a466a	2.8735968e-07
151	0x3757111d	1.2818983e-05
152	0xb304e6ce	-3.094356e-08
153	0xb5e6de97	-1.7201118e-06
154	0x32e5c36e	2.674798e-08
155	0xb6464d69	-2.9549358e-06
156	0xb5c971b3	-1.5008758e-06
157	0x372d3f97	1.0326409e-05
158	0xb60d3439	-2.1041035e-06
159	0x387ce417	6.0293907e-05
160	0x38d71f71	0.00010257855
161	0x36f9e058	7.4468953e-06
162	0xb27bfff7	-1.4668323e-08
163	0xb66fc133	-3.5726232e-06
164	0xb63e07f6	-2.831684e-06
165	0xb1d22221	-6.1156844e-09
166	0xb1871e90	-3.9324917e-09
167	0x376f37e9	1.4258528e-05
168	0x37f0904e	2.8677427e-05
169	0x3846e745	4.7422265e-05
170	0x3620dcec	2.3970451e-06
171	0x352fe319	6.552305e-07
172	0xb5a9eea4	-1.2660935e-06
173	0xb34d36f6	-4.778027e-08
174	0x35b8a122	1.3755964e-06
175	0x376e8f18	1.4219222e-05
176	0x3692d639	4.376078e-06
177	0x301fdcdd	5.815773e-10
178	0x37c8d2d2	2.3940029e-05
179	0x371fcbd4	9.524596e-06
180	0x313c5f57	2.7411795e-09
181	0x37a6a96f	1.986764e-05
182	0x362382eb	2.4365097e-06
183	0x26773da7	8.5778894e-16
184	0x380b34c7	3.3189335e-05
185	0x385471ae	5.065061e-05
186	0xb28ac057	-1.615278e-08
187	0x373b343b	1.1158229e-05
188	0x382a08ed	4.053947e-05
189	0x360c4d0a	2.0906468e-06
190	0x1518b1ec	3.083651e-26
191	0xb40b89d0	-1.299552e-07
192	0x360cb3a5	2.0966193e-06
193	0x91e8666e	-3.6666273e-28
194	0xb711d1db	-8.691534e-06
195	0x360cb3a5	2.0966193e-06
196	0x26b76fc8	1.2728474e-15
197	0x36dfb51f	6.667003e-06
198	0x30a64e65	1.2100371e-09
199	0x2f36fa83	1.6641803e-10
200	0x371567ac	8.90523e-06
201	0x27961aee	4.166256e-15
202	0xb697bfa7	-4.522462e-06
203	0x383ec90c	4.548677e-05
204	0xb1809ed3	-3.7433465e-09
205	0xb5b31f0f	-1.3345579e-06
206	0x35ba2611	1.3869159e-06
207	0xaef69520	-1.1213275e-10
208	0x384e772d	4.922522e-05
209	0x386c81a9	5.638754e-05
210	0x28f3546e	2.7015035e-14
211	0x37909c84	1.7239021e-05
212	0xb603fe74	-1.9668632e-06
213	0xb66f38f8	-3.5646935e-06
214	0x38290a16	4.0302133e-05
215	0xb4ff9139	-4.7603115e-07
216	0xa3308acd	-9.570371e-18
217	0xb02ac9d9	-6.213248e-10
218	0x382e3145	4.153072e-05
219	0xa1c45000	-1.3302652e-18
220	0x1cd1f824	1.3894603e-21
221	0x38004b77	3.058786e-05
222	0xaf1d1939	-1.4288028e-10
223	0x350e1f7d	5.2944944e-07
224	0x36f72bd4	7.366276e-06
225	0x35ed724d	1.7691142e-06
226	0xb31e025c	-3.6789388e-08
227	0xb6ebfb5c	-7.032808e-06
228	0x368f30b2	4.267401e-06
229	0x37457507	1.1769363e-05
230	0xb6adf918	-5.1848e-06
231	0x366eb0db	3.5567707e-06
232	0x389d5b61	7.503364e-05
233	0x3881fa5e	6.197834e-05
234	0x38024b6e	3.1064665e-05
235	0x377b3364	1.4972731e-05
236	0x376a6ce0	1.3972836e-05
237	0x38026857	3.109159e-05
238	0x376aab0d	1.3987313e-05
239	0x373c7496	1.1232818e-05
240	0x381d984e	3.757356e-05
241	0x37ebe51d	2.8120872e-05
242	0x381a76e1	3.6827176e-05
243	0x378b95ba	1.6639813e-05
244	0x3710cbc7	8.6305145e-06
245	0x37eff4d7	2.8605033e-05
246	0x378ba297	1.6645803e-05
247	0x36bc1788	5.605576e-06
248	0x36b019d1	5.248214e-06
249	0x37abaa52	2.04641e-05
250	0x3861d660	5.3843833e-05
251	0x37965e83	1.7925404e-05
252	0x3642ed8b	2.904652e-06
253	0xb52d9cdf	-6.46758e-07
254	0xb382a778	-6.084059e-08
255	0x36430a88	2.9063394e-06

momentum_buffer f4 [64]
0	0x38762956	5.8689468e-05
1	0x3acf1bd7	0.0015801144
2	0x3af14f64	0.0018410501
3	0xba029c30	-0.000498238
4	0x38a471c3	7.841319e-05
5	0x3aa24b21	0.0012382009
6	0xba4e96e2	-0.00078807597
7	0xb8a0d392	-7.6688026e-05
8	0x38cfd05f	9.909341e-05
9	0x3a869aa7	0.0010269479
10	0xbb14c7a8	-0.0022702012
11	0x38b6fe52	8.725807e-05
12	0xb926560e	-0.00015863052
13	0x392e29c5	0.00016609493
14	0xba8083cb	-0.0009804902
15	0x3a511c34	0.000797692
16	0xb9e7fa00	-0.00044246018
17	0xba97a3aa	-0.0011569161
18	0xb9ec06e6	-0.00045018567
19	0x382c077b	4.1014962e-05
20	0xbab7c76c	-0.0014021224
21	0x3b38792f	0.0028148403
22	0xb9d5a9b1	-0.00040752956
23	0x3ace7397	0.0015751001
24	0xbaaf7f28	-0.0013389336
25	0xba35d813	-0.00069367996
26	0xbb1801b2	-0.002319437
27	0xba252132	-0.0006299197
28	0x3a1be902	0.00059475016
29	0xba95edfd	-0.0011438724
30	0xb98d85d3	-0.00026993323
31	0xb8b8b347	-8.807197e-05
32	0x39dc7933	0.0004205197
33	0x3a99ae39	0.0011724896
34	0xba961948	-0.0011451626
35	0xba0649e2	-0.0005122704
36	0xb9fc4872	-0.00048119162
37	0xba9a74e6	-0.0011784106
38	0xba2365b9	-0.00062331144
39	0xbace6e20	-0.0015749373
40	0xba8a5a5d	-0.0010555495
41	0x39eac058	0.00044775265
42	0xbaef566a	-0.0018260006
43	0xb62e1214	-2.5938543e-06
44	0x3b5d999a	0.0033813477
45	0xb9f78aa4	-0.00047214807
46	0xb888e43a	-6.527496e-05
47	0xba82cf7f	-0.0009980052
48	0x396f4e6c	0.0002282203
49	0x39c405ea	0.0003738844
50	0x3a308084	0.00067330175
51	0xb9d2b6a3	-0.00040190396
52	0x3a65401b	0.0008745209
53	0xba7dfac0	-0.0009688549
54	0xb5b8ad6e	-1.3759543e-06
55	0x3aa78458	0.001278053
56	0xb9ded0fd	-0.00042498848
57	0x3b1f016f	0.002426233
58	0xb93ed4fd	-0.00018199156
59	0xb8b05321	-8.407818e-05
60	0xb9b35d7d	-0.00034211195
61	0xba173cc7	-0.00057692494
62	0x3aaa0cb0	0.0012973752
63	0xb993b6ff	-0.00028174368

momentum_buffer f4 [10, 3136]
0	0x00000004	6e-45
1	0x0000089f	3.093e-42
2	0x0018e319	2.285519e-39
3	0x1efdec27	2.6885087e-20
4	0x2c4b29d0	2.8871246e-12
5	0xb2310fcb	-1.0306347e-08
6	0x26567491	7.440414e-16
7	0x00000026	5.3e-44
8	0x09727e37	2.9189036e-33
9	0x259ea080	2.751739e-16
10	0xaa9445cb	-2.633851e-13
11	0x27a574fa	4.5923526e-15
12	0x2c38114f	2.615758e-12
13	0x2f316818	1.6135038e-10
14	0x0ce0ae4b	3.4617563e-31
15	0x23c90063	2.1792627e-17
16	0x279c7e6b	4.343576e-15
17	0x307c3d23	9.1763946e-10
18	0x2a890dce	2.4345668e-13
19	0x1e0054f9	6.7938355e-21
20	0x13fa16b2	6.313125e-27
21	0x03d42507	1.2468741e-36
22	0x2c2416f2	2.331854e-12
23	0x306b30a0	8.55616e-10
24	0x2cf4fb9b	6.962831e-12
25	0x27ab83b1	4.7604814e-15
26	0x80000004	-6e-45
27	0x0f9f036b	1.5679927e-29
28	0xadaeffed	-1.9895164e-11
29	0x2cb4c958	5.1382613e-12
30	0x21620a47	7.658538e-19
31	0x2bf7283a	1.7561571e-12
32	0x2d223e33	9.222445e-12
33	0x0069c0f9	9.711953e-39
34	0x00000004	6e-45
35	0x31c5d609	5.7577876e-09
36	0x36215b72	2.4044098e-06
37	0x249ecae3	6.886528e-17
38	0x202d5e2c	1.4684829e-19
39	0x189b616c	4.016493e-24
40	0x00000004	6e-45
41	0x00000004	6e-45
42	0x10d5bf85	8.430877e-29
43	0x32067304	7.825978e-09
44	0x28189229	8.469388e-15
45	0x1d0aa4c4	1.834933e-21
46	0x07e0a3e5	3.3800103e-34
47	0x00000004	6e-45
48	0x00000004	6e-45
49	0x00000004	6e-45
50	0x00000e65	5.164e-42
51	0x1b629c0f	1.8744707e-22
52	0x303c4aaf	6.8500133e-10
53	0x34bd327d	3.5240728e-07
54	0x33c069d9	8.95995e-08
55	0x29421521	4.309498e-14
56	0x29850b7c	5.908379e-14
57	0x2e896924	6.2487154e-11
58	0x3245a3df	1.1504169e-08
59	0x329e34e0	1.8417666e-08
60	0x30ddccf6	1.613812e-09
61	0x33ea0eb1	1.08991465e-07
62	0x3044f3e3	7.165097e-10
63	0x2f9b7a83	2.8281386e-10
64	0x33bba999	8.738716e-08
65	0x34b1ed90	3.314167e-07
66	0x350df105	5.287732e-07
67	0x311a38a7	2.2442153e-09
68	0x354bb5e5	7.5888084e-07
69	0x20984b20	2.5799515e-19
70	0x308f637d	1.0432896e-09
71	0x34b460be	3.3598002e-07
72	0x347e921c	2.3708748e-07
73	0x354f5a66	7.7245056e-07
74	0x35297258	6.31238e-07
75	0x2be9b949	1.6607073e-12
76	0x127cb614	7.974161e-28
77	0x30861098	9.754499e-10
78	0x352a03a6	6.3335244e-07
79	0x2c822f84	3.7000975e-12
80	0x3672648b	3.6119334e-06
81	0x2ca7363a	4.752446e-12
82	0x1a3c906a	3.8994146e-23
83	0x0fd5a4c1	2.1066882e-29
84	0x360413dd	1.9681095e-06
85	0x368ae89b	4.1397993e-06
86	0x3026526f	6.0507593e-10
87	0x112ad334	1.3475717e-28
88	0x1ad0b6a9	8.632189e-23
89	0x069183e0	5.473671e-35
90	0x00000004	6e-45
91	0x332ad668	3.977621e-08
92	0x33ad983d	8.083632e-08
93	0x2fd62858	3.895504e-10
94	0x1d628fd2	2.9985204e-21
95	0x0723dae8	1.2327088e-34
96	0x00000004	6e-45
97	0x00000004	6e-45
98	0x00000004	6e-45
99	0x00000004	6e-45
100	0x00000004	6e-45
101	0x00000004	6e-45
102	0x00000004	6e-45
103	0x00000004	6e-45
104	0x00000004	6e-45
105	0x00000004	6e-45
106	0x00002548	1.3374e-41
107	0x8c7c8776	-1.9454138e-31
108	0x27eb79dc	6.5357723e-15
109	0x3218437c	8.862909e-09
110	0x34d00fd6	3.875454e-07
111	0x00000004	6e-45
112	0x00000004	6e-45
113	0x0c4a9e37	1.5609125e-31
114	0x20674f20	1.9592641e-19
115	0x33e85121	1.0818099e-07
116	0x35cf235d	1.5432994e-06
117	0x32247728	9.573149e-09
118	0x2f7f5cb0	2.3225044e-10
119	0x00000004	6e-45
120	0x237e16e7	1.3774217e-17
121	0x3087e3fe	9.887342e-10
122	0xb31d7ae0	-3.6666165e-08
123	0x2d021c35	7.395908e-12
124	0x325817a8	1.2578234e-08
125	0x00000004	6e-45
126	0x00000004	6e-45
127	0xb3b0be4d	-8.230254e-08
128	0x3323e8ae	3.8163016e-08
129	0x2c78d6c7	3.5362145e-12
130	0x33161ecf	3.4952617e-08
131	0x34a70266	3.110792e-07
132	0x00000004	6e-45
133	0x2b0bada7	4.962371e-13
134	0x36be0038	5.6624667e-06
135	0x33e62827	1.0717513e-07
136	0x32fc51b0	2.9373808e-08
137	0x2b86dd8a	9.582762e-13
138	0x00000004	6e-45
139	0x00000004	6e-45
140	0x00000004	6e-45
141	0x318155e7	3.76416e-09
142	0x2fe1c76d	4.1068962e-10
143	0x25d00164	3.608319e-16
144	0x00000004	6e-45
145	0x00000004	6e-45
146	0x00000004	6e-45
147	0x00000037	7.7e-44
148	0x8ab01253	-1.6955076e-32
149	0xa93b0d64	-4.1533956e-14
150	0x2f757cfb	2.2327022e-10
151	0x3511ca96	5.431151e-07
152	0x2446ec44	4.313453e-17
153	0x00000004	6e-45
154	0x0b883761	5.246862e-32
155	0x2a034080	1.1657515e-13
156	0x3230f0c9	1.02992965e-08
157	0x31be0038	5.5297527e-09
158	0x2f6be7d0	2.1455482e-10
159	0x36466535	2.956321e-06
160	0x35556922	7.950167e-07
161	0x9ab8b9dc	-7.640089e-23
162	0x2f3b65b2	1.704368e-10
163	0x323c42e5	1.095825e-08
164	0x2ed7603a	9.794161e-11
165	0x3570116a	8.943231e-07
166	0x3303d916	3.0698253e-08
167	0x3319afad	3.5782865e-08
168	0xac3b4eb7	-2.6617994e-12
169	0x2f28705f	1.5319433e-10
170	0x2f1cacb7	1.4249478e-10
171	0xb2d9ef44	-2.537093e-08
172	0x3082840f	9.496278e-10
173	0x33a8afd6	7.855094e-08
174	0x3601ab07	1.932205e-06
175	0x2fb0f9f0	3.2191805e-10
176	0x302eb9bf	6.356479e-10
177	0x27737066	3.3783956e-15
178	0x314eb546	3.0079987e-09
179	0x3399e85f	7.166886e-08
180	0x35b54191	1.3504633e-06
181	0x35f9223b	1.8561908e-06
182	0x25ef0486	4.1462956e-16
183	0x2e6704ef	5.25277e-11
184	0x2bd96e77	1.5449438e-12
185	0x3340768f	4.4811312e-08
186	0x3302be2a	3.0440937e-08
187	0x2f4c4384	1.8577678e-10
188	0x22c4783c	5.325321e-18
189	0x00000004	6e-45
190	0x302f86aa	6.3856e-10
191	0x335629a4	4.986363e-08
192	0x319077a3	4.2045527e-09
193	0x24680c5c	5.031745e-17
194	0x1ab362e5	7.419244e-23
195	0x00520847	7.53348e-39
196	0x00000004	6e-45
197	0x00000004	6e-45
198	0x0a3605ad	8.764049e-33
199	0x2a55216d	1.8929797e-13
200	0x2bcd70e4	1.459746e-12
201	0x318c7daf	4.088825e-09
202	0xb18d346b	-4.1095993e-09
203	0x00000004	6e-45
204	0x0c12ccb8	1.1309036e-31
205	0x1fcd5ae7	8.697126e-20
206	0x33ed1f45	1.10418604e-07
207	0xac413e48	-2.7461523e-12
208	0x2a9f9375	2.8346393e-13
209	0x2f9538fd	2.7143435e-10
210	0x00000004	6e-45
211	0x2d459c5b	1.1232871e-11
212	0x270598c8	1.854028e-15
213	0xac28c547	-2.3983747e-12
214	0x30836629	9.56054e-10
215	0x350e4e7d	5.301334e-07
216	0x20019653	1.0976463e-19
217	0x00000004	6e-45
218	0xacc7dad4	-5.680215e-12
219	0x31c6d475	5.786712e-09
220	0x312adb8c	2.4863054e-09
221	0xaa215248	-1.432822e-13
222	0xab8e45a9	-1.0109041e-12
223	0x0e8a3958	3.4074847e-30
224	0x00000004	6e-45
225	0x344edf49	1.9266476e-07
226	0x319f2e91	4.632803e-09
227	0x2babf499	1.221817e-12
228	0x2a890851	2.434186e-13
229	0x2bd42018	1.5072414e-12
230	0x089b635f	9.352085e-34
231	0x0000f08a	8.6289e-41
232	0xb2ca104b	-2.3523304e-08
233	0x338dabfc	6.597108e-08
234	0x2c036e25	1.8677362e-12
235	0x1b275b75	1.3843468e-22
236	0x0f02ece4	6.455118e-30
237	0x0000012f	4.25e-43
238	0x00000004	6e-45
239	0x311bb28a	2.2656956e-09
240	0x30c1334d	1.4057179e-09
241	0x1d17179a	1.9996885e-21
242	0x035f81aa	6.5682657e-37
243	0x02d41f8b	3.1168705e-37
244	0x00000004	6e-45
245	0x2a8bc32c	2.4826788e-13
246	0x2a808e57	2.2836136e-13
247	0x2aaa9a9e	3.0305353e-13
248	0x34d7531e	4.0107346e-07
249	0x358e856e	1.0618658e-06
250	0x3663b26e	3.3929496e-06
251	0x31b29a27	5.198007e-09
252	0x28221876	8.998111e-15
253	0x33652d58	5.3359457e-08
254	0x330cf5d7	3.281988e-08
255	0x360e3ba5	2.1194367e-06

momentum_buffer f4 [10]
0	0x3615cf6b	2.2323463e-06
1	0xb5ebc069	-1.7564863e-06
2	0x3abb8dd4	0.0014309236
3	0xb8f7b4c3	-0.00011811547
4	0x3b1826fe	0.00232166
5	0x3690f3dd	4.319924e-06
6	0xb70c0070	-8.344752e-06
7	0xbab5569f	-0.0013835019
8	0x3593599d	1.0978434e-06
9	0xbb135bb3	-0.0022485077
